ir_version: 6
producer_name: "pytorch"
producer_version: "1.8"
model_version: 0
graph {
  name: "torch-jit-export"
  node {
    input: "input.1"
    input: "module.conv1.weight"
    output: "298"
    name: "Conv_0"
    op_type: "Conv"
    attribute {
      name: "dilations"
      ints: 1
      ints: 1
      type: INTS
    }
    attribute {
      name: "group"
      i: 1
      type: INT
    }
    attribute {
      name: "kernel_shape"
      ints: 7
      ints: 7
      type: INTS
    }
    attribute {
      name: "pads"
      ints: 3
      ints: 3
      ints: 3
      ints: 3
      type: INTS
    }
    attribute {
      name: "strides"
      ints: 2
      ints: 2
      type: INTS
    }
  }
  node {
    input: "298"
    input: "1560"
    output: "315"
    name: "Mul_1"
    op_type: "Mul"
  }
  node {
    input: "315"
    input: "1562"
    output: "316"
    name: "Add_2"
    op_type: "Add"
  }
  node {
    input: "316"
    output: "317"
    name: "Relu_3"
    op_type: "Relu"
  }
  node {
    input: "317"
    output: "318"
    name: "MaxPool_4"
    op_type: "MaxPool"
    attribute {
      name: "ceil_mode"
      i: 0
      type: INT
    }
    attribute {
      name: "kernel_shape"
      ints: 3
      ints: 3
      type: INTS
    }
    attribute {
      name: "pads"
      ints: 1
      ints: 1
      ints: 1
      ints: 1
      type: INTS
    }
    attribute {
      name: "strides"
      ints: 2
      ints: 2
      type: INTS
    }
  }
  node {
    input: "318"
    input: "1503"
    input: "1504"
    output: "1502"
    name: "Conv_5"
    op_type: "Conv"
    attribute {
      name: "dilations"
      ints: 1
      ints: 1
      type: INTS
    }
    attribute {
      name: "group"
      i: 1
      type: INT
    }
    attribute {
      name: "kernel_shape"
      ints: 3
      ints: 3
      type: INTS
    }
    attribute {
      name: "pads"
      ints: 1
      ints: 1
      ints: 1
      ints: 1
      type: INTS
    }
    attribute {
      name: "strides"
      ints: 1
      ints: 1
      type: INTS
    }
  }
  node {
    input: "1502"
    output: "321"
    name: "Relu_6"
    op_type: "Relu"
  }
  node {
    input: "321"
    input: "1506"
    input: "1507"
    output: "1505"
    name: "Conv_7"
    op_type: "Conv"
    attribute {
      name: "dilations"
      ints: 1
      ints: 1
      type: INTS
    }
    attribute {
      name: "group"
      i: 1
      type: INT
    }
    attribute {
      name: "kernel_shape"
      ints: 3
      ints: 3
      type: INTS
    }
    attribute {
      name: "pads"
      ints: 1
      ints: 1
      ints: 1
      ints: 1
      type: INTS
    }
    attribute {
      name: "strides"
      ints: 1
      ints: 1
      type: INTS
    }
  }
  node {
    input: "1505"
    input: "318"
    output: "324"
    name: "Add_8"
    op_type: "Add"
  }
  node {
    input: "324"
    output: "325"
    name: "Relu_9"
    op_type: "Relu"
  }
  node {
    input: "325"
    input: "1509"
    input: "1510"
    output: "1508"
    name: "Conv_10"
    op_type: "Conv"
    attribute {
      name: "dilations"
      ints: 1
      ints: 1
      type: INTS
    }
    attribute {
      name: "group"
      i: 1
      type: INT
    }
    attribute {
      name: "kernel_shape"
      ints: 3
      ints: 3
      type: INTS
    }
    attribute {
      name: "pads"
      ints: 1
      ints: 1
      ints: 1
      ints: 1
      type: INTS
    }
    attribute {
      name: "strides"
      ints: 2
      ints: 2
      type: INTS
    }
  }
  node {
    input: "1508"
    output: "328"
    name: "Relu_11"
    op_type: "Relu"
  }
  node {
    input: "328"
    input: "1512"
    input: "1513"
    output: "1511"
    name: "Conv_12"
    op_type: "Conv"
    attribute {
      name: "dilations"
      ints: 1
      ints: 1
      type: INTS
    }
    attribute {
      name: "group"
      i: 1
      type: INT
    }
    attribute {
      name: "kernel_shape"
      ints: 3
      ints: 3
      type: INTS
    }
    attribute {
      name: "pads"
      ints: 1
      ints: 1
      ints: 1
      ints: 1
      type: INTS
    }
    attribute {
      name: "strides"
      ints: 1
      ints: 1
      type: INTS
    }
  }
  node {
    input: "325"
    input: "1515"
    input: "1516"
    output: "1514"
    name: "Conv_13"
    op_type: "Conv"
    attribute {
      name: "dilations"
      ints: 1
      ints: 1
      type: INTS
    }
    attribute {
      name: "group"
      i: 1
      type: INT
    }
    attribute {
      name: "kernel_shape"
      ints: 1
      ints: 1
      type: INTS
    }
    attribute {
      name: "pads"
      ints: 0
      ints: 0
      ints: 0
      ints: 0
      type: INTS
    }
    attribute {
      name: "strides"
      ints: 2
      ints: 2
      type: INTS
    }
  }
  node {
    input: "1511"
    input: "1514"
    output: "333"
    name: "Add_14"
    op_type: "Add"
  }
  node {
    input: "333"
    output: "334"
    name: "Relu_15"
    op_type: "Relu"
  }
  node {
    input: "334"
    input: "1518"
    input: "1519"
    output: "1517"
    name: "Conv_16"
    op_type: "Conv"
    attribute {
      name: "dilations"
      ints: 1
      ints: 1
      type: INTS
    }
    attribute {
      name: "group"
      i: 1
      type: INT
    }
    attribute {
      name: "kernel_shape"
      ints: 3
      ints: 3
      type: INTS
    }
    attribute {
      name: "pads"
      ints: 1
      ints: 1
      ints: 1
      ints: 1
      type: INTS
    }
    attribute {
      name: "strides"
      ints: 1
      ints: 1
      type: INTS
    }
  }
  node {
    input: "1517"
    output: "337"
    name: "Relu_17"
    op_type: "Relu"
  }
  node {
    input: "337"
    input: "1521"
    input: "1522"
    output: "1520"
    name: "Conv_18"
    op_type: "Conv"
    attribute {
      name: "dilations"
      ints: 1
      ints: 1
      type: INTS
    }
    attribute {
      name: "group"
      i: 1
      type: INT
    }
    attribute {
      name: "kernel_shape"
      ints: 3
      ints: 3
      type: INTS
    }
    attribute {
      name: "pads"
      ints: 1
      ints: 1
      ints: 1
      ints: 1
      type: INTS
    }
    attribute {
      name: "strides"
      ints: 1
      ints: 1
      type: INTS
    }
  }
  node {
    input: "1520"
    input: "334"
    output: "340"
    name: "Add_19"
    op_type: "Add"
  }
  node {
    input: "340"
    output: "341"
    name: "Relu_20"
    op_type: "Relu"
  }
  node {
    input: "341"
    input: "1524"
    input: "1525"
    output: "1523"
    name: "Conv_21"
    op_type: "Conv"
    attribute {
      name: "dilations"
      ints: 1
      ints: 1
      type: INTS
    }
    attribute {
      name: "group"
      i: 1
      type: INT
    }
    attribute {
      name: "kernel_shape"
      ints: 3
      ints: 3
      type: INTS
    }
    attribute {
      name: "pads"
      ints: 1
      ints: 1
      ints: 1
      ints: 1
      type: INTS
    }
    attribute {
      name: "strides"
      ints: 2
      ints: 2
      type: INTS
    }
  }
  node {
    input: "1523"
    output: "344"
    name: "Relu_22"
    op_type: "Relu"
  }
  node {
    input: "344"
    input: "1527"
    input: "1528"
    output: "1526"
    name: "Conv_23"
    op_type: "Conv"
    attribute {
      name: "dilations"
      ints: 1
      ints: 1
      type: INTS
    }
    attribute {
      name: "group"
      i: 1
      type: INT
    }
    attribute {
      name: "kernel_shape"
      ints: 3
      ints: 3
      type: INTS
    }
    attribute {
      name: "pads"
      ints: 1
      ints: 1
      ints: 1
      ints: 1
      type: INTS
    }
    attribute {
      name: "strides"
      ints: 1
      ints: 1
      type: INTS
    }
  }
  node {
    input: "341"
    input: "1530"
    input: "1531"
    output: "1529"
    name: "Conv_24"
    op_type: "Conv"
    attribute {
      name: "dilations"
      ints: 1
      ints: 1
      type: INTS
    }
    attribute {
      name: "group"
      i: 1
      type: INT
    }
    attribute {
      name: "kernel_shape"
      ints: 1
      ints: 1
      type: INTS
    }
    attribute {
      name: "pads"
      ints: 0
      ints: 0
      ints: 0
      ints: 0
      type: INTS
    }
    attribute {
      name: "strides"
      ints: 2
      ints: 2
      type: INTS
    }
  }
  node {
    input: "1526"
    input: "1529"
    output: "349"
    name: "Add_25"
    op_type: "Add"
  }
  node {
    input: "349"
    output: "350"
    name: "Relu_26"
    op_type: "Relu"
  }
  node {
    input: "350"
    input: "1533"
    input: "1534"
    output: "1532"
    name: "Conv_27"
    op_type: "Conv"
    attribute {
      name: "dilations"
      ints: 1
      ints: 1
      type: INTS
    }
    attribute {
      name: "group"
      i: 1
      type: INT
    }
    attribute {
      name: "kernel_shape"
      ints: 3
      ints: 3
      type: INTS
    }
    attribute {
      name: "pads"
      ints: 1
      ints: 1
      ints: 1
      ints: 1
      type: INTS
    }
    attribute {
      name: "strides"
      ints: 1
      ints: 1
      type: INTS
    }
  }
  node {
    input: "1532"
    output: "353"
    name: "Relu_28"
    op_type: "Relu"
  }
  node {
    input: "353"
    input: "1536"
    input: "1537"
    output: "1535"
    name: "Conv_29"
    op_type: "Conv"
    attribute {
      name: "dilations"
      ints: 1
      ints: 1
      type: INTS
    }
    attribute {
      name: "group"
      i: 1
      type: INT
    }
    attribute {
      name: "kernel_shape"
      ints: 3
      ints: 3
      type: INTS
    }
    attribute {
      name: "pads"
      ints: 1
      ints: 1
      ints: 1
      ints: 1
      type: INTS
    }
    attribute {
      name: "strides"
      ints: 1
      ints: 1
      type: INTS
    }
  }
  node {
    input: "1535"
    input: "350"
    output: "356"
    name: "Add_30"
    op_type: "Add"
  }
  node {
    input: "356"
    output: "357"
    name: "Relu_31"
    op_type: "Relu"
  }
  node {
    input: "357"
    input: "1539"
    input: "1540"
    output: "1538"
    name: "Conv_32"
    op_type: "Conv"
    attribute {
      name: "dilations"
      ints: 1
      ints: 1
      type: INTS
    }
    attribute {
      name: "group"
      i: 1
      type: INT
    }
    attribute {
      name: "kernel_shape"
      ints: 3
      ints: 3
      type: INTS
    }
    attribute {
      name: "pads"
      ints: 1
      ints: 1
      ints: 1
      ints: 1
      type: INTS
    }
    attribute {
      name: "strides"
      ints: 2
      ints: 2
      type: INTS
    }
  }
  node {
    input: "1538"
    output: "360"
    name: "Relu_33"
    op_type: "Relu"
  }
  node {
    input: "360"
    input: "1542"
    input: "1543"
    output: "1541"
    name: "Conv_34"
    op_type: "Conv"
    attribute {
      name: "dilations"
      ints: 1
      ints: 1
      type: INTS
    }
    attribute {
      name: "group"
      i: 1
      type: INT
    }
    attribute {
      name: "kernel_shape"
      ints: 3
      ints: 3
      type: INTS
    }
    attribute {
      name: "pads"
      ints: 1
      ints: 1
      ints: 1
      ints: 1
      type: INTS
    }
    attribute {
      name: "strides"
      ints: 1
      ints: 1
      type: INTS
    }
  }
  node {
    input: "357"
    input: "1545"
    input: "1546"
    output: "1544"
    name: "Conv_35"
    op_type: "Conv"
    attribute {
      name: "dilations"
      ints: 1
      ints: 1
      type: INTS
    }
    attribute {
      name: "group"
      i: 1
      type: INT
    }
    attribute {
      name: "kernel_shape"
      ints: 1
      ints: 1
      type: INTS
    }
    attribute {
      name: "pads"
      ints: 0
      ints: 0
      ints: 0
      ints: 0
      type: INTS
    }
    attribute {
      name: "strides"
      ints: 2
      ints: 2
      type: INTS
    }
  }
  node {
    input: "1541"
    input: "1544"
    output: "365"
    name: "Add_36"
    op_type: "Add"
  }
  node {
    input: "365"
    output: "366"
    name: "Relu_37"
    op_type: "Relu"
  }
  node {
    input: "366"
    input: "1548"
    input: "1549"
    output: "1547"
    name: "Conv_38"
    op_type: "Conv"
    attribute {
      name: "dilations"
      ints: 1
      ints: 1
      type: INTS
    }
    attribute {
      name: "group"
      i: 1
      type: INT
    }
    attribute {
      name: "kernel_shape"
      ints: 3
      ints: 3
      type: INTS
    }
    attribute {
      name: "pads"
      ints: 1
      ints: 1
      ints: 1
      ints: 1
      type: INTS
    }
    attribute {
      name: "strides"
      ints: 1
      ints: 1
      type: INTS
    }
  }
  node {
    input: "1547"
    output: "369"
    name: "Relu_39"
    op_type: "Relu"
  }
  node {
    input: "369"
    input: "1551"
    input: "1552"
    output: "1550"
    name: "Conv_40"
    op_type: "Conv"
    attribute {
      name: "dilations"
      ints: 1
      ints: 1
      type: INTS
    }
    attribute {
      name: "group"
      i: 1
      type: INT
    }
    attribute {
      name: "kernel_shape"
      ints: 3
      ints: 3
      type: INTS
    }
    attribute {
      name: "pads"
      ints: 1
      ints: 1
      ints: 1
      ints: 1
      type: INTS
    }
    attribute {
      name: "strides"
      ints: 1
      ints: 1
      type: INTS
    }
  }
  node {
    input: "1550"
    input: "366"
    output: "372"
    name: "Add_41"
    op_type: "Add"
  }
  node {
    input: "372"
    output: "373"
    name: "Relu_42"
    op_type: "Relu"
  }
  node {
    output: "374"
    name: "Constant_43"
    op_type: "Constant"
    attribute {
      name: "value"
      t {
        data_type: 7
        raw_data: "\000\000\000\000\000\000\000\000"
      }
      type: TENSOR
    }
  }
  node {
    input: "x2"
    input: "374"
    output: "375"
    name: "Gather_44"
    op_type: "Gather"
    attribute {
      name: "axis"
      i: 1
      type: INT
    }
  }
  node {
    input: "375"
    output: "376"
    name: "Unsqueeze_45"
    op_type: "Unsqueeze"
    attribute {
      name: "axes"
      ints: 0
      type: INTS
    }
  }
  node {
    input: "373"
    output: "377"
    name: "Shape_46"
    op_type: "Shape"
  }
  node {
    output: "378"
    name: "Constant_47"
    op_type: "Constant"
    attribute {
      name: "value"
      t {
        data_type: 7
        raw_data: "\002\000\000\000\000\000\000\000"
      }
      type: TENSOR
    }
  }
  node {
    input: "377"
    input: "378"
    output: "379"
    name: "Gather_48"
    op_type: "Gather"
    attribute {
      name: "axis"
      i: 0
      type: INT
    }
  }
  node {
    input: "373"
    output: "380"
    name: "Shape_49"
    op_type: "Shape"
  }
  node {
    output: "381"
    name: "Constant_50"
    op_type: "Constant"
    attribute {
      name: "value"
      t {
        data_type: 7
        raw_data: "\003\000\000\000\000\000\000\000"
      }
      type: TENSOR
    }
  }
  node {
    input: "380"
    input: "381"
    output: "382"
    name: "Gather_51"
    op_type: "Gather"
    attribute {
      name: "axis"
      i: 0
      type: INT
    }
  }
  node {
    input: "379"
    output: "383"
    name: "Unsqueeze_52"
    op_type: "Unsqueeze"
    attribute {
      name: "axes"
      ints: 0
      type: INTS
    }
  }
  node {
    input: "382"
    output: "384"
    name: "Unsqueeze_53"
    op_type: "Unsqueeze"
    attribute {
      name: "axes"
      ints: 0
      type: INTS
    }
  }
  node {
    input: "383"
    input: "384"
    output: "385"
    name: "Concat_54"
    op_type: "Concat"
    attribute {
      name: "axis"
      i: 0
      type: INT
    }
  }
  node {
    input: "376"
    output: "386"
    name: "Shape_55"
    op_type: "Shape"
  }
  node {
    output: "387"
    name: "Constant_56"
    op_type: "Constant"
    attribute {
      name: "value"
      t {
        dims: 1
        data_type: 7
        raw_data: "\000\000\000\000\000\000\000\000"
      }
      type: TENSOR
    }
  }
  node {
    output: "388"
    name: "Constant_57"
    op_type: "Constant"
    attribute {
      name: "value"
      t {
        dims: 1
        data_type: 7
        raw_data: "\000\000\000\000\000\000\000\000"
      }
      type: TENSOR
    }
  }
  node {
    output: "389"
    name: "Constant_58"
    op_type: "Constant"
    attribute {
      name: "value"
      t {
        dims: 1
        data_type: 7
        raw_data: "\002\000\000\000\000\000\000\000"
      }
      type: TENSOR
    }
  }
  node {
    input: "386"
    input: "388"
    input: "389"
    input: "387"
    output: "390"
    name: "Slice_59"
    op_type: "Slice"
  }
  node {
    input: "385"
    output: "391"
    name: "Cast_60"
    op_type: "Cast"
    attribute {
      name: "to"
      i: 7
      type: INT
    }
  }
  node {
    input: "390"
    input: "391"
    output: "392"
    name: "Concat_61"
    op_type: "Concat"
    attribute {
      name: "axis"
      i: 0
      type: INT
    }
  }
  node {
    output: "393"
    name: "Constant_62"
    op_type: "Constant"
    attribute {
      name: "value"
      t {
        dims: 0
        data_type: 1
        raw_data: ""
      }
      type: TENSOR
    }
  }
  node {
    output: "394"
    name: "Constant_63"
    op_type: "Constant"
    attribute {
      name: "value"
      t {
        dims: 0
        data_type: 1
        raw_data: ""
      }
      type: TENSOR
    }
  }
  node {
    input: "376"
    input: "393"
    input: "394"
    input: "392"
    output: "395"
    name: "Resize_64"
    op_type: "Resize"
    attribute {
      name: "coordinate_transformation_mode"
      s: "asymmetric"
      type: STRING
    }
    attribute {
      name: "cubic_coeff_a"
      f: -0.75
      type: FLOAT
    }
    attribute {
      name: "mode"
      s: "nearest"
      type: STRING
    }
    attribute {
      name: "nearest_mode"
      s: "floor"
      type: STRING
    }
  }
  node {
    input: "395"
    output: "396"
    name: "Cast_65"
    op_type: "Cast"
    attribute {
      name: "to"
      i: 9
      type: INT
    }
  }
  node {
    output: "397"
    name: "Constant_66"
    op_type: "Constant"
    attribute {
      name: "value"
      t {
        data_type: 7
        raw_data: "\000\000\000\000\000\000\000\000"
      }
      type: TENSOR
    }
  }
  node {
    input: "396"
    input: "397"
    output: "398"
    name: "Gather_67"
    op_type: "Gather"
    attribute {
      name: "axis"
      i: 0
      type: INT
    }
  }
  node {
    input: "398"
    output: "399"
    name: "Not_68"
    op_type: "Not"
  }
  node {
    output: "400"
    name: "Constant_69"
    op_type: "Constant"
    attribute {
      name: "value"
      t {
        data_type: 6
        raw_data: "\001\000\000\000"
      }
      type: TENSOR
    }
  }
  node {
    input: "399"
    output: "401"
    name: "Cast_70"
    op_type: "Cast"
    attribute {
      name: "to"
      i: 1
      type: INT
    }
  }
  node {
    input: "401"
    input: "400"
    output: "402"
    name: "CumSum_71"
    op_type: "CumSum"
  }
  node {
    output: "403"
    name: "Constant_72"
    op_type: "Constant"
    attribute {
      name: "value"
      t {
        data_type: 6
        raw_data: "\002\000\000\000"
      }
      type: TENSOR
    }
  }
  node {
    input: "399"
    output: "404"
    name: "Cast_73"
    op_type: "Cast"
    attribute {
      name: "to"
      i: 1
      type: INT
    }
  }
  node {
    input: "404"
    input: "403"
    output: "405"
    name: "CumSum_74"
    op_type: "CumSum"
  }
  node {
    output: "406"
    name: "Constant_75"
    op_type: "Constant"
    attribute {
      name: "value"
      t {
        dims: 1
        data_type: 7
        raw_data: "\001\000\000\000\000\000\000\000"
      }
      type: TENSOR
    }
  }
  node {
    output: "407"
    name: "Constant_76"
    op_type: "Constant"
    attribute {
      name: "value"
      t {
        dims: 1
        data_type: 7
        raw_data: "\377\377\377\377\377\377\377\377"
      }
      type: TENSOR
    }
  }
  node {
    output: "408"
    name: "Constant_77"
    op_type: "Constant"
    attribute {
      name: "value"
      t {
        dims: 1
        data_type: 7
        raw_data: "\377\377\377\377\377\377\377\177"
      }
      type: TENSOR
    }
  }
  node {
    output: "409"
    name: "Constant_78"
    op_type: "Constant"
    attribute {
      name: "value"
      t {
        dims: 1
        data_type: 7
        raw_data: "\001\000\000\000\000\000\000\000"
      }
      type: TENSOR
    }
  }
  node {
    input: "402"
    input: "407"
    input: "408"
    input: "406"
    input: "409"
    output: "410"
    name: "Slice_79"
    op_type: "Slice"
  }
  node {
    output: "411"
    name: "Constant_80"
    op_type: "Constant"
    attribute {
      name: "value"
      t {
        data_type: 1
        raw_data: "\2757\2065"
      }
      type: TENSOR
    }
  }
  node {
    input: "410"
    input: "411"
    output: "412"
    name: "Add_81"
    op_type: "Add"
  }
  node {
    input: "402"
    input: "412"
    output: "413"
    name: "Div_82"
    op_type: "Div"
  }
  node {
    output: "414"
    name: "Constant_83"
    op_type: "Constant"
    attribute {
      name: "value"
      t {
        data_type: 1
        raw_data: "\333\017\311@"
      }
      type: TENSOR
    }
  }
  node {
    input: "413"
    input: "414"
    output: "415"
    name: "Mul_84"
    op_type: "Mul"
  }
  node {
    output: "416"
    name: "Constant_85"
    op_type: "Constant"
    attribute {
      name: "value"
      t {
        dims: 1
        data_type: 7
        raw_data: "\002\000\000\000\000\000\000\000"
      }
      type: TENSOR
    }
  }
  node {
    output: "417"
    name: "Constant_86"
    op_type: "Constant"
    attribute {
      name: "value"
      t {
        dims: 1
        data_type: 7
        raw_data: "\377\377\377\377\377\377\377\377"
      }
      type: TENSOR
    }
  }
  node {
    output: "418"
    name: "Constant_87"
    op_type: "Constant"
    attribute {
      name: "value"
      t {
        dims: 1
        data_type: 7
        raw_data: "\377\377\377\377\377\377\377\177"
      }
      type: TENSOR
    }
  }
  node {
    output: "419"
    name: "Constant_88"
    op_type: "Constant"
    attribute {
      name: "value"
      t {
        dims: 1
        data_type: 7
        raw_data: "\001\000\000\000\000\000\000\000"
      }
      type: TENSOR
    }
  }
  node {
    input: "405"
    input: "417"
    input: "418"
    input: "416"
    input: "419"
    output: "420"
    name: "Slice_89"
    op_type: "Slice"
  }
  node {
    output: "421"
    name: "Constant_90"
    op_type: "Constant"
    attribute {
      name: "value"
      t {
        data_type: 1
        raw_data: "\2757\2065"
      }
      type: TENSOR
    }
  }
  node {
    input: "420"
    input: "421"
    output: "422"
    name: "Add_91"
    op_type: "Add"
  }
  node {
    input: "405"
    input: "422"
    output: "423"
    name: "Div_92"
    op_type: "Div"
  }
  node {
    output: "424"
    name: "Constant_93"
    op_type: "Constant"
    attribute {
      name: "value"
      t {
        data_type: 1
        raw_data: "\333\017\311@"
      }
      type: TENSOR
    }
  }
  node {
    input: "423"
    input: "424"
    output: "425"
    name: "Mul_94"
    op_type: "Mul"
  }
  node {
    input: "425"
    output: "426"
    name: "Unsqueeze_95"
    op_type: "Unsqueeze"
    attribute {
      name: "axes"
      ints: 3
      type: INTS
    }
  }
  node {
    output: "427"
    name: "Constant_96"
    op_type: "Constant"
    attribute {
      name: "value"
      t {
        dims: 16
        data_type: 1
        raw_data: "…"
      }
      type: TENSOR
    }
  }
  node {
    input: "426"
    input: "427"
    output: "428"
    name: "Div_97"
    op_type: "Div"
  }
  node {
    input: "415"
    output: "429"
    name: "Unsqueeze_98"
    op_type: "Unsqueeze"
    attribute {
      name: "axes"
      ints: 3
      type: INTS
    }
  }
  node {
    output: "430"
    name: "Constant_99"
    op_type: "Constant"
    attribute {
      name: "value"
      t {
        dims: 16
        data_type: 1
        raw_data: "…"
      }
      type: TENSOR
    }
  }
  node {
    input: "429"
    input: "430"
    output: "431"
    name: "Div_100"
    op_type: "Div"
  }
  node {
    output: "432"
    name: "Constant_101"
    op_type: "Constant"
    attribute {
      name: "value"
      t {
        dims: 1
        data_type: 7
        raw_data: "\003\000\000\000\000\000\000\000"
      }
      type: TENSOR
    }
  }
  node {
    output: "433"
    name: "Constant_102"
    op_type: "Constant"
    attribute {
      name: "value"
      t {
        dims: 1
        data_type: 7
        raw_data: "\000\000\000\000\000\000\000\000"
      }
      type: TENSOR
    }
  }
  node {
    output: "434"
    name: "Constant_103"
    op_type: "Constant"
    attribute {
      name: "value"
      t {
        dims: 1
        data_type: 7
        raw_data: "\377\377\377\377\377\377\377\177"
      }
      type: TENSOR
    }
  }
  node {
    output: "435"
    name: "Constant_104"
    op_type: "Constant"
    attribute {
      name: "value"
      t {
        dims: 1
        data_type: 7
        raw_data: "\002\000\000\000\000\000\000\000"
      }
      type: TENSOR
    }
  }
  node {
    input: "428"
    input: "433"
    input: "434"
    input: "432"
    input: "435"
    output: "436"
    name: "Slice_105"
    op_type: "Slice"
  }
  node {
    input: "436"
    output: "437"
    name: "Sin_106"
    op_type: "Sin"
  }
  node {
    output: "438"
    name: "Constant_107"
    op_type: "Constant"
    attribute {
      name: "value"
      t {
        dims: 1
        data_type: 7
        raw_data: "\003\000\000\000\000\000\000\000"
      }
      type: TENSOR
    }
  }
  node {
    output: "439"
    name: "Constant_108"
    op_type: "Constant"
    attribute {
      name: "value"
      t {
        dims: 1
        data_type: 7
        raw_data: "\001\000\000\000\000\000\000\000"
      }
      type: TENSOR
    }
  }
  node {
    output: "440"
    name: "Constant_109"
    op_type: "Constant"
    attribute {
      name: "value"
      t {
        dims: 1
        data_type: 7
        raw_data: "\377\377\377\377\377\377\377\177"
      }
      type: TENSOR
    }
  }
  node {
    output: "441"
    name: "Constant_110"
    op_type: "Constant"
    attribute {
      name: "value"
      t {
        dims: 1
        data_type: 7
        raw_data: "\002\000\000\000\000\000\000\000"
      }
      type: TENSOR
    }
  }
  node {
    input: "428"
    input: "439"
    input: "440"
    input: "438"
    input: "441"
    output: "442"
    name: "Slice_111"
    op_type: "Slice"
  }
  node {
    input: "442"
    output: "443"
    name: "Cos_112"
    op_type: "Cos"
  }
  node {
    input: "437"
    output: "444"
    name: "Unsqueeze_113"
    op_type: "Unsqueeze"
    attribute {
      name: "axes"
      ints: 4
      type: INTS
    }
  }
  node {
    input: "443"
    output: "445"
    name: "Unsqueeze_114"
    op_type: "Unsqueeze"
    attribute {
      name: "axes"
      ints: 4
      type: INTS
    }
  }
  node {
    input: "444"
    input: "445"
    output: "446"
    name: "Concat_115"
    op_type: "Concat"
    attribute {
      name: "axis"
      i: 4
      type: INT
    }
  }
  node {
    input: "446"
    output: "447"
    name: "Shape_116"
    op_type: "Shape"
  }
  node {
    output: "448"
    name: "Constant_117"
    op_type: "Constant"
    attribute {
      name: "value"
      t {
        dims: 1
        data_type: 7
        raw_data: "\000\000\000\000\000\000\000\000"
      }
      type: TENSOR
    }
  }
  node {
    output: "449"
    name: "Constant_118"
    op_type: "Constant"
    attribute {
      name: "value"
      t {
        dims: 1
        data_type: 7
        raw_data: "\000\000\000\000\000\000\000\000"
      }
      type: TENSOR
    }
  }
  node {
    output: "450"
    name: "Constant_119"
    op_type: "Constant"
    attribute {
      name: "value"
      t {
        dims: 1
        data_type: 7
        raw_data: "\003\000\000\000\000\000\000\000"
      }
      type: TENSOR
    }
  }
  node {
    input: "447"
    input: "449"
    input: "450"
    input: "448"
    output: "451"
    name: "Slice_120"
    op_type: "Slice"
  }
  node {
    output: "452"
    name: "Constant_121"
    op_type: "Constant"
    attribute {
      name: "value"
      t {
        dims: 1
        data_type: 7
        raw_data: "\377\377\377\377\377\377\377\377"
      }
      type: TENSOR
    }
  }
  node {
    input: "451"
    input: "452"
    output: "453"
    name: "Concat_122"
    op_type: "Concat"
    attribute {
      name: "axis"
      i: 0
      type: INT
    }
  }
  node {
    input: "446"
    input: "453"
    output: "454"
    name: "Reshape_123"
    op_type: "Reshape"
  }
  node {
    output: "455"
    name: "Constant_124"
    op_type: "Constant"
    attribute {
      name: "value"
      t {
        dims: 1
        data_type: 7
        raw_data: "\003\000\000\000\000\000\000\000"
      }
      type: TENSOR
    }
  }
  node {
    output: "456"
    name: "Constant_125"
    op_type: "Constant"
    attribute {
      name: "value"
      t {
        dims: 1
        data_type: 7
        raw_data: "\000\000\000\000\000\000\000\000"
      }
      type: TENSOR
    }
  }
  node {
    output: "457"
    name: "Constant_126"
    op_type: "Constant"
    attribute {
      name: "value"
      t {
        dims: 1
        data_type: 7
        raw_data: "\377\377\377\377\377\377\377\177"
      }
      type: TENSOR
    }
  }
  node {
    output: "458"
    name: "Constant_127"
    op_type: "Constant"
    attribute {
      name: "value"
      t {
        dims: 1
        data_type: 7
        raw_data: "\002\000\000\000\000\000\000\000"
      }
      type: TENSOR
    }
  }
  node {
    input: "431"
    input: "456"
    input: "457"
    input: "455"
    input: "458"
    output: "459"
    name: "Slice_128"
    op_type: "Slice"
  }
  node {
    input: "459"
    output: "460"
    name: "Sin_129"
    op_type: "Sin"
  }
  node {
    output: "461"
    name: "Constant_130"
    op_type: "Constant"
    attribute {
      name: "value"
      t {
        dims: 1
        data_type: 7
        raw_data: "\003\000\000\000\000\000\000\000"
      }
      type: TENSOR
    }
  }
  node {
    output: "462"
    name: "Constant_131"
    op_type: "Constant"
    attribute {
      name: "value"
      t {
        dims: 1
        data_type: 7
        raw_data: "\001\000\000\000\000\000\000\000"
      }
      type: TENSOR
    }
  }
  node {
    output: "463"
    name: "Constant_132"
    op_type: "Constant"
    attribute {
      name: "value"
      t {
        dims: 1
        data_type: 7
        raw_data: "\377\377\377\377\377\377\377\177"
      }
      type: TENSOR
    }
  }
  node {
    output: "464"
    name: "Constant_133"
    op_type: "Constant"
    attribute {
      name: "value"
      t {
        dims: 1
        data_type: 7
        raw_data: "\002\000\000\000\000\000\000\000"
      }
      type: TENSOR
    }
  }
  node {
    input: "431"
    input: "462"
    input: "463"
    input: "461"
    input: "464"
    output: "465"
    name: "Slice_134"
    op_type: "Slice"
  }
  node {
    input: "465"
    output: "466"
    name: "Cos_135"
    op_type: "Cos"
  }
  node {
    input: "460"
    output: "467"
    name: "Unsqueeze_136"
    op_type: "Unsqueeze"
    attribute {
      name: "axes"
      ints: 4
      type: INTS
    }
  }
  node {
    input: "466"
    output: "468"
    name: "Unsqueeze_137"
    op_type: "Unsqueeze"
    attribute {
      name: "axes"
      ints: 4
      type: INTS
    }
  }
  node {
    input: "467"
    input: "468"
    output: "469"
    name: "Concat_138"
    op_type: "Concat"
    attribute {
      name: "axis"
      i: 4
      type: INT
    }
  }
  node {
    input: "469"
    output: "470"
    name: "Shape_139"
    op_type: "Shape"
  }
  node {
    output: "471"
    name: "Constant_140"
    op_type: "Constant"
    attribute {
      name: "value"
      t {
        dims: 1
        data_type: 7
        raw_data: "\000\000\000\000\000\000\000\000"
      }
      type: TENSOR
    }
  }
  node {
    output: "472"
    name: "Constant_141"
    op_type: "Constant"
    attribute {
      name: "value"
      t {
        dims: 1
        data_type: 7
        raw_data: "\000\000\000\000\000\000\000\000"
      }
      type: TENSOR
    }
  }
  node {
    output: "473"
    name: "Constant_142"
    op_type: "Constant"
    attribute {
      name: "value"
      t {
        dims: 1
        data_type: 7
        raw_data: "\003\000\000\000\000\000\000\000"
      }
      type: TENSOR
    }
  }
  node {
    input: "470"
    input: "472"
    input: "473"
    input: "471"
    output: "474"
    name: "Slice_143"
    op_type: "Slice"
  }
  node {
    output: "475"
    name: "Constant_144"
    op_type: "Constant"
    attribute {
      name: "value"
      t {
        dims: 1
        data_type: 7
        raw_data: "\377\377\377\377\377\377\377\377"
      }
      type: TENSOR
    }
  }
  node {
    input: "474"
    input: "475"
    output: "476"
    name: "Concat_145"
    op_type: "Concat"
    attribute {
      name: "axis"
      i: 0
      type: INT
    }
  }
  node {
    input: "469"
    input: "476"
    output: "477"
    name: "Reshape_146"
    op_type: "Reshape"
  }
  node {
    input: "477"
    input: "454"
    output: "478"
    name: "Concat_147"
    op_type: "Concat"
    attribute {
      name: "axis"
      i: 3
      type: INT
    }
  }
  node {
    input: "478"
    output: "479"
    name: "Transpose_148"
    op_type: "Transpose"
    attribute {
      name: "perm"
      ints: 0
      ints: 3
      ints: 1
      ints: 2
      type: INTS
    }
  }
  node {
    input: "373"
    input: "module.input_proj.weight"
    input: "module.input_proj.bias"
    output: "480"
    name: "Conv_149"
    op_type: "Conv"
    attribute {
      name: "dilations"
      ints: 1
      ints: 1
      type: INTS
    }
    attribute {
      name: "group"
      i: 1
      type: INT
    }
    attribute {
      name: "kernel_shape"
      ints: 1
      ints: 1
      type: INTS
    }
    attribute {
      name: "pads"
      ints: 0
      ints: 0
      ints: 0
      ints: 0
      type: INTS
    }
    attribute {
      name: "strides"
      ints: 1
      ints: 1
      type: INTS
    }
  }
  node {
    input: "480"
    output: "481"
    name: "Shape_150"
    op_type: "Shape"
  }
  node {
    output: "482"
    name: "Constant_151"
    op_type: "Constant"
    attribute {
      name: "value"
      t {
        data_type: 7
        raw_data: "\000\000\000\000\000\000\000\000"
      }
      type: TENSOR
    }
  }
  node {
    input: "481"
    input: "482"
    output: "483"
    name: "Gather_152"
    op_type: "Gather"
    attribute {
      name: "axis"
      i: 0
      type: INT
    }
  }
  node {
    input: "480"
    output: "484"
    name: "Shape_153"
    op_type: "Shape"
  }
  node {
    output: "485"
    name: "Constant_154"
    op_type: "Constant"
    attribute {
      name: "value"
      t {
        dims: 1
        data_type: 7
        raw_data: "\000\000\000\000\000\000\000\000"
      }
      type: TENSOR
    }
  }
  node {
    output: "486"
    name: "Constant_155"
    op_type: "Constant"
    attribute {
      name: "value"
      t {
        dims: 1
        data_type: 7
        raw_data: "\000\000\000\000\000\000\000\000"
      }
      type: TENSOR
    }
  }
  node {
    output: "487"
    name: "Constant_156"
    op_type: "Constant"
    attribute {
      name: "value"
      t {
        dims: 1
        data_type: 7
        raw_data: "\002\000\000\000\000\000\000\000"
      }
      type: TENSOR
    }
  }
  node {
    input: "484"
    input: "486"
    input: "487"
    input: "485"
    output: "488"
    name: "Slice_157"
    op_type: "Slice"
  }
  node {
    output: "489"
    name: "Constant_158"
    op_type: "Constant"
    attribute {
      name: "value"
      t {
        dims: 1
        data_type: 7
        raw_data: "\377\377\377\377\377\377\377\377"
      }
      type: TENSOR
    }
  }
  node {
    input: "488"
    input: "489"
    output: "490"
    name: "Concat_159"
    op_type: "Concat"
    attribute {
      name: "axis"
      i: 0
      type: INT
    }
  }
  node {
    input: "480"
    input: "490"
    output: "491"
    name: "Reshape_160"
    op_type: "Reshape"
  }
  node {
    input: "491"
    output: "492"
    name: "Transpose_161"
    op_type: "Transpose"
    attribute {
      name: "perm"
      ints: 2
      ints: 0
      ints: 1
      type: INTS
    }
  }
  node {
    input: "479"
    output: "493"
    name: "Shape_162"
    op_type: "Shape"
  }
  node {
    output: "494"
    name: "Constant_163"
    op_type: "Constant"
    attribute {
      name: "value"
      t {
        dims: 1
        data_type: 7
        raw_data: "\000\000\000\000\000\000\000\000"
      }
      type: TENSOR
    }
  }
  node {
    output: "495"
    name: "Constant_164"
    op_type: "Constant"
    attribute {
      name: "value"
      t {
        dims: 1
        data_type: 7
        raw_data: "\000\000\000\000\000\000\000\000"
      }
      type: TENSOR
    }
  }
  node {
    output: "496"
    name: "Constant_165"
    op_type: "Constant"
    attribute {
      name: "value"
      t {
        dims: 1
        data_type: 7
        raw_data: "\002\000\000\000\000\000\000\000"
      }
      type: TENSOR
    }
  }
  node {
    input: "493"
    input: "495"
    input: "496"
    input: "494"
    output: "497"
    name: "Slice_166"
    op_type: "Slice"
  }
  node {
    output: "498"
    name: "Constant_167"
    op_type: "Constant"
    attribute {
      name: "value"
      t {
        dims: 1
        data_type: 7
        raw_data: "\377\377\377\377\377\377\377\377"
      }
      type: TENSOR
    }
  }
  node {
    input: "497"
    input: "498"
    output: "499"
    name: "Concat_168"
    op_type: "Concat"
    attribute {
      name: "axis"
      i: 0
      type: INT
    }
  }
  node {
    input: "479"
    input: "499"
    output: "500"
    name: "Reshape_169"
    op_type: "Reshape"
  }
  node {
    input: "500"
    output: "501"
    name: "Transpose_170"
    op_type: "Transpose"
    attribute {
      name: "perm"
      ints: 2
      ints: 0
      ints: 1
      type: INTS
    }
  }
  node {
    input: "483"
    output: "506"
    name: "Unsqueeze_171"
    op_type: "Unsqueeze"
    attribute {
      name: "axes"
      ints: 0
      type: INTS
    }
  }
  node {
    input: "1564"
    input: "506"
    input: "1565"
    output: "508"
    name: "Concat_172"
    op_type: "Concat"
    attribute {
      name: "axis"
      i: 0
      type: INT
    }
  }
  node {
    input: "483"
    output: "510"
    name: "Unsqueeze_173"
    op_type: "Unsqueeze"
    attribute {
      name: "axes"
      ints: 0
      type: INTS
    }
  }
  node {
    input: "1566"
    input: "510"
    input: "1567"
    output: "512"
    name: "Concat_174"
    op_type: "Concat"
    attribute {
      name: "axis"
      i: 0
      type: INT
    }
  }
  node {
    input: "508"
    output: "513"
    name: "Shape_175"
    op_type: "Shape"
  }
  node {
    input: "513"
    output: "514"
    name: "ConstantOfShape_176"
    op_type: "ConstantOfShape"
    attribute {
      name: "value"
      t {
        dims: 1
        data_type: 7
        raw_data: "\001\000\000\000\000\000\000\000"
      }
      type: TENSOR
    }
  }
  node {
    input: "1563"
    input: "514"
    output: "515"
    name: "Expand_177"
    op_type: "Expand"
  }
  node {
    input: "515"
    input: "512"
    output: "516"
    name: "Tile_178"
    op_type: "Tile"
  }
  node {
    input: "398"
    output: "517"
    name: "Flatten_179"
    op_type: "Flatten"
    attribute {
      name: "axis"
      i: 1
      type: INT
    }
  }
  node {
    input: "516"
    output: "518"
    name: "Shape_180"
    op_type: "Shape"
  }
  node {
    input: "518"
    output: "519"
    name: "ConstantOfShape_181"
    op_type: "ConstantOfShape"
    attribute {
      name: "value"
      t {
        dims: 1
        data_type: 1
        raw_data: "\000\000\000\000"
      }
      type: TENSOR
    }
  }
  node {
    input: "492"
    input: "501"
    output: "520"
    name: "Add_182"
    op_type: "Add"
  }
  node {
    input: "520"
    output: "521"
    name: "Shape_183"
    op_type: "Shape"
  }
  node {
    output: "522"
    name: "Constant_184"
    op_type: "Constant"
    attribute {
      name: "value"
      t {
        data_type: 7
        raw_data: "\000\000\000\000\000\000\000\000"
      }
      type: TENSOR
    }
  }
  node {
    input: "521"
    input: "522"
    output: "523"
    name: "Gather_185"
    op_type: "Gather"
    attribute {
      name: "axis"
      i: 0
      type: INT
    }
  }
  node {
    input: "520"
    output: "524"
    name: "Shape_186"
    op_type: "Shape"
  }
  node {
    output: "525"
    name: "Constant_187"
    op_type: "Constant"
    attribute {
      name: "value"
      t {
        data_type: 7
        raw_data: "\001\000\000\000\000\000\000\000"
      }
      type: TENSOR
    }
  }
  node {
    input: "524"
    input: "525"
    output: "526"
    name: "Gather_188"
    op_type: "Gather"
    attribute {
      name: "axis"
      i: 0
      type: INT
    }
  }
  node {
    input: "520"
    output: "527"
    name: "Shape_189"
    op_type: "Shape"
  }
  node {
    output: "528"
    name: "Constant_190"
    op_type: "Constant"
    attribute {
      name: "value"
      t {
        data_type: 7
        raw_data: "\002\000\000\000\000\000\000\000"
      }
      type: TENSOR
    }
  }
  node {
    input: "527"
    input: "528"
    output: "529"
    name: "Gather_191"
    op_type: "Gather"
    attribute {
      name: "axis"
      i: 0
      type: INT
    }
  }
  node {
    output: "530"
    name: "Constant_192"
    op_type: "Constant"
    attribute {
      name: "value"
      t {
        data_type: 7
        raw_data: "\002\000\000\000\000\000\000\000"
      }
      type: TENSOR
    }
  }
  node {
    input: "529"
    input: "530"
    output: "531"
    name: "Div_193"
    op_type: "Div"
  }
  node {
    input: "531"
    output: "532"
    name: "Cast_194"
    op_type: "Cast"
    attribute {
      name: "to"
      i: 7
      type: INT
    }
  }
  node {
    input: "532"
    output: "533"
    name: "Cast_195"
    op_type: "Cast"
    attribute {
      name: "to"
      i: 7
      type: INT
    }
  }
  node {
    input: "529"
    output: "537"
    name: "Unsqueeze_196"
    op_type: "Unsqueeze"
    attribute {
      name: "axes"
      ints: 0
      type: INTS
    }
  }
  node {
    output: "539"
    name: "Constant_197"
    op_type: "Constant"
    attribute {
      name: "value"
      t {
        dims: 1
        data_type: 7
        raw_data: "\001\000\000\000\000\000\000\000"
      }
      type: TENSOR
    }
  }
  node {
    input: "module.transformer.encoder.layers.0.self_attn.in_proj_weight"
    input: "1568"
    input: "537"
    input: "1569"
    input: "539"
    output: "540"
    name: "Slice_198"
    op_type: "Slice"
  }
  node {
    input: "529"
    output: "544"
    name: "Unsqueeze_199"
    op_type: "Unsqueeze"
    attribute {
      name: "axes"
      ints: 0
      type: INTS
    }
  }
  node {
    output: "546"
    name: "Constant_200"
    op_type: "Constant"
    attribute {
      name: "value"
      t {
        dims: 1
        data_type: 7
        raw_data: "\001\000\000\000\000\000\000\000"
      }
      type: TENSOR
    }
  }
  node {
    input: "module.transformer.encoder.layers.0.self_attn.in_proj_bias"
    input: "1570"
    input: "544"
    input: "1571"
    input: "546"
    output: "547"
    name: "Slice_201"
    op_type: "Slice"
  }
  node {
    input: "540"
    output: "548"
    name: "Transpose_202"
    op_type: "Transpose"
    attribute {
      name: "perm"
      ints: 1
      ints: 0
      type: INTS
    }
  }
  node {
    input: "520"
    input: "548"
    output: "549"
    name: "MatMul_203"
    op_type: "MatMul"
  }
  node {
    input: "549"
    input: "547"
    output: "550"
    name: "Add_204"
    op_type: "Add"
  }
  node {
    output: "551"
    name: "Constant_205"
    op_type: "Constant"
    attribute {
      name: "value"
      t {
        data_type: 7
        raw_data: "\002\000\000\000\000\000\000\000"
      }
      type: TENSOR
    }
  }
  node {
    input: "529"
    input: "551"
    output: "552"
    name: "Mul_206"
    op_type: "Mul"
  }
  node {
    input: "529"
    output: "554"
    name: "Unsqueeze_207"
    op_type: "Unsqueeze"
    attribute {
      name: "axes"
      ints: 0
      type: INTS
    }
  }
  node {
    input: "552"
    output: "555"
    name: "Unsqueeze_208"
    op_type: "Unsqueeze"
    attribute {
      name: "axes"
      ints: 0
      type: INTS
    }
  }
  node {
    output: "557"
    name: "Constant_209"
    op_type: "Constant"
    attribute {
      name: "value"
      t {
        dims: 1
        data_type: 7
        raw_data: "\001\000\000\000\000\000\000\000"
      }
      type: TENSOR
    }
  }
  node {
    input: "module.transformer.encoder.layers.0.self_attn.in_proj_weight"
    input: "554"
    input: "555"
    input: "1572"
    input: "557"
    output: "558"
    name: "Slice_210"
    op_type: "Slice"
  }
  node {
    input: "529"
    output: "560"
    name: "Unsqueeze_211"
    op_type: "Unsqueeze"
    attribute {
      name: "axes"
      ints: 0
      type: INTS
    }
  }
  node {
    input: "552"
    output: "561"
    name: "Unsqueeze_212"
    op_type: "Unsqueeze"
    attribute {
      name: "axes"
      ints: 0
      type: INTS
    }
  }
  node {
    output: "563"
    name: "Constant_213"
    op_type: "Constant"
    attribute {
      name: "value"
      t {
        dims: 1
        data_type: 7
        raw_data: "\001\000\000\000\000\000\000\000"
      }
      type: TENSOR
    }
  }
  node {
    input: "module.transformer.encoder.layers.0.self_attn.in_proj_bias"
    input: "560"
    input: "561"
    input: "1573"
    input: "563"
    output: "564"
    name: "Slice_214"
    op_type: "Slice"
  }
  node {
    input: "558"
    output: "565"
    name: "Transpose_215"
    op_type: "Transpose"
    attribute {
      name: "perm"
      ints: 1
      ints: 0
      type: INTS
    }
  }
  node {
    input: "520"
    input: "565"
    output: "566"
    name: "MatMul_216"
    op_type: "MatMul"
  }
  node {
    input: "566"
    input: "564"
    output: "567"
    name: "Add_217"
    op_type: "Add"
  }
  node {
    output: "568"
    name: "Constant_218"
    op_type: "Constant"
    attribute {
      name: "value"
      t {
        data_type: 7
        raw_data: "\002\000\000\000\000\000\000\000"
      }
      type: TENSOR
    }
  }
  node {
    input: "529"
    input: "568"
    output: "569"
    name: "Mul_219"
    op_type: "Mul"
  }
  node {
    input: "569"
    output: "572"
    name: "Unsqueeze_220"
    op_type: "Unsqueeze"
    attribute {
      name: "axes"
      ints: 0
      type: INTS
    }
  }
  node {
    output: "575"
    name: "Constant_221"
    op_type: "Constant"
    attribute {
      name: "value"
      t {
        dims: 1
        data_type: 7
        raw_data: "\001\000\000\000\000\000\000\000"
      }
      type: TENSOR
    }
  }
  node {
    input: "module.transformer.encoder.layers.0.self_attn.in_proj_weight"
    input: "572"
    input: "1574"
    input: "1575"
    input: "575"
    output: "576"
    name: "Slice_222"
    op_type: "Slice"
  }
  node {
    input: "569"
    output: "579"
    name: "Unsqueeze_223"
    op_type: "Unsqueeze"
    attribute {
      name: "axes"
      ints: 0
      type: INTS
    }
  }
  node {
    output: "582"
    name: "Constant_224"
    op_type: "Constant"
    attribute {
      name: "value"
      t {
        dims: 1
        data_type: 7
        raw_data: "\001\000\000\000\000\000\000\000"
      }
      type: TENSOR
    }
  }
  node {
    input: "module.transformer.encoder.layers.0.self_attn.in_proj_bias"
    input: "579"
    input: "1576"
    input: "1577"
    input: "582"
    output: "583"
    name: "Slice_225"
    op_type: "Slice"
  }
  node {
    input: "576"
    output: "584"
    name: "Transpose_226"
    op_type: "Transpose"
    attribute {
      name: "perm"
      ints: 1
      ints: 0
      type: INTS
    }
  }
  node {
    input: "492"
    input: "584"
    output: "585"
    name: "MatMul_227"
    op_type: "MatMul"
  }
  node {
    input: "585"
    input: "583"
    output: "586"
    name: "Add_228"
    op_type: "Add"
  }
  node {
    output: "587"
    name: "Constant_229"
    op_type: "Constant"
    attribute {
      name: "value"
      t {
        data_type: 1
        raw_data: "\000\000\200>"
      }
      type: TENSOR
    }
  }
  node {
    input: "550"
    input: "587"
    output: "588"
    name: "Mul_230"
    op_type: "Mul"
  }
  node {
    output: "589"
    name: "Constant_231"
    op_type: "Constant"
    attribute {
      name: "value"
      t {
        data_type: 7
        raw_data: "\002\000\000\000\000\000\000\000"
      }
      type: TENSOR
    }
  }
  node {
    input: "526"
    input: "589"
    output: "590"
    name: "Mul_232"
    op_type: "Mul"
  }
  node {
    input: "523"
    output: "591"
    name: "Unsqueeze_233"
    op_type: "Unsqueeze"
    attribute {
      name: "axes"
      ints: 0
      type: INTS
    }
  }
  node {
    input: "590"
    output: "592"
    name: "Unsqueeze_234"
    op_type: "Unsqueeze"
    attribute {
      name: "axes"
      ints: 0
      type: INTS
    }
  }
  node {
    input: "533"
    output: "593"
    name: "Unsqueeze_235"
    op_type: "Unsqueeze"
    attribute {
      name: "axes"
      ints: 0
      type: INTS
    }
  }
  node {
    input: "591"
    input: "592"
    input: "593"
    output: "594"
    name: "Concat_236"
    op_type: "Concat"
    attribute {
      name: "axis"
      i: 0
      type: INT
    }
  }
  node {
    input: "588"
    input: "594"
    output: "595"
    name: "Reshape_237"
    op_type: "Reshape"
  }
  node {
    input: "595"
    output: "596"
    name: "Transpose_238"
    op_type: "Transpose"
    attribute {
      name: "perm"
      ints: 1
      ints: 0
      ints: 2
      type: INTS
    }
  }
  node {
    output: "597"
    name: "Constant_239"
    op_type: "Constant"
    attribute {
      name: "value"
      t {
        data_type: 7
        raw_data: "\002\000\000\000\000\000\000\000"
      }
      type: TENSOR
    }
  }
  node {
    input: "526"
    input: "597"
    output: "598"
    name: "Mul_240"
    op_type: "Mul"
  }
  node {
    input: "598"
    output: "601"
    name: "Unsqueeze_241"
    op_type: "Unsqueeze"
    attribute {
      name: "axes"
      ints: 0
      type: INTS
    }
  }
  node {
    input: "533"
    output: "602"
    name: "Unsqueeze_242"
    op_type: "Unsqueeze"
    attribute {
      name: "axes"
      ints: 0
      type: INTS
    }
  }
  node {
    input: "1578"
    input: "601"
    input: "602"
    output: "603"
    name: "Concat_243"
    op_type: "Concat"
    attribute {
      name: "axis"
      i: 0
      type: INT
    }
  }
  node {
    input: "567"
    input: "603"
    output: "604"
    name: "Reshape_244"
    op_type: "Reshape"
  }
  node {
    input: "604"
    output: "605"
    name: "Transpose_245"
    op_type: "Transpose"
    attribute {
      name: "perm"
      ints: 1
      ints: 0
      ints: 2
      type: INTS
    }
  }
  node {
    output: "606"
    name: "Constant_246"
    op_type: "Constant"
    attribute {
      name: "value"
      t {
        data_type: 7
        raw_data: "\002\000\000\000\000\000\000\000"
      }
      type: TENSOR
    }
  }
  node {
    input: "526"
    input: "606"
    output: "607"
    name: "Mul_247"
    op_type: "Mul"
  }
  node {
    input: "607"
    output: "610"
    name: "Unsqueeze_248"
    op_type: "Unsqueeze"
    attribute {
      name: "axes"
      ints: 0
      type: INTS
    }
  }
  node {
    input: "533"
    output: "611"
    name: "Unsqueeze_249"
    op_type: "Unsqueeze"
    attribute {
      name: "axes"
      ints: 0
      type: INTS
    }
  }
  node {
    input: "1579"
    input: "610"
    input: "611"
    output: "612"
    name: "Concat_250"
    op_type: "Concat"
    attribute {
      name: "axis"
      i: 0
      type: INT
    }
  }
  node {
    input: "586"
    input: "612"
    output: "613"
    name: "Reshape_251"
    op_type: "Reshape"
  }
  node {
    input: "613"
    output: "614"
    name: "Transpose_252"
    op_type: "Transpose"
    attribute {
      name: "perm"
      ints: 1
      ints: 0
      ints: 2
      type: INTS
    }
  }
  node {
    input: "605"
    output: "615"
    name: "Shape_253"
    op_type: "Shape"
  }
  node {
    output: "616"
    name: "Constant_254"
    op_type: "Constant"
    attribute {
      name: "value"
      t {
        data_type: 7
        raw_data: "\001\000\000\000\000\000\000\000"
      }
      type: TENSOR
    }
  }
  node {
    input: "615"
    input: "616"
    output: "617"
    name: "Gather_255"
    op_type: "Gather"
    attribute {
      name: "axis"
      i: 0
      type: INT
    }
  }
  node {
    input: "604"
    output: "618"
    name: "Transpose_256"
    op_type: "Transpose"
    attribute {
      name: "perm"
      ints: 1
      ints: 2
      ints: 0
      type: INTS
    }
  }
  node {
    input: "596"
    input: "618"
    output: "619"
    name: "MatMul_257"
    op_type: "MatMul"
  }
  node {
    input: "526"
    output: "621"
    name: "Unsqueeze_258"
    op_type: "Unsqueeze"
    attribute {
      name: "axes"
      ints: 0
      type: INTS
    }
  }
  node {
    input: "523"
    output: "623"
    name: "Unsqueeze_259"
    op_type: "Unsqueeze"
    attribute {
      name: "axes"
      ints: 0
      type: INTS
    }
  }
  node {
    input: "617"
    output: "624"
    name: "Unsqueeze_260"
    op_type: "Unsqueeze"
    attribute {
      name: "axes"
      ints: 0
      type: INTS
    }
  }
  node {
    input: "621"
    input: "1580"
    input: "623"
    input: "624"
    output: "625"
    name: "Concat_261"
    op_type: "Concat"
    attribute {
      name: "axis"
      i: 0
      type: INT
    }
  }
  node {
    input: "619"
    input: "625"
    output: "626"
    name: "Reshape_262"
    op_type: "Reshape"
  }
  node {
    input: "517"
    output: "627"
    name: "Unsqueeze_263"
    op_type: "Unsqueeze"
    attribute {
      name: "axes"
      ints: 1
      type: INTS
    }
  }
  node {
    input: "627"
    output: "628"
    name: "Unsqueeze_264"
    op_type: "Unsqueeze"
    attribute {
      name: "axes"
      ints: 2
      type: INTS
    }
  }
  node {
    input: "628"
    output: "629"
    name: "Cast_265"
    op_type: "Cast"
    attribute {
      name: "to"
      i: 9
      type: INT
    }
  }
  node {
    output: "630"
    name: "Constant_266"
    op_type: "Constant"
    attribute {
      name: "value"
      t {
        data_type: 1
        raw_data: "\000\000\200\377"
      }
      type: TENSOR
    }
  }
  node {
    input: "629"
    input: "630"
    input: "626"
    output: "631"
    name: "Where_267"
    op_type: "Where"
  }
  node {
    output: "632"
    name: "Constant_268"
    op_type: "Constant"
    attribute {
      name: "value"
      t {
        data_type: 7
        raw_data: "\002\000\000\000\000\000\000\000"
      }
      type: TENSOR
    }
  }
  node {
    input: "526"
    input: "632"
    output: "633"
    name: "Mul_269"
    op_type: "Mul"
  }
  node {
    input: "633"
    output: "634"
    name: "Unsqueeze_270"
    op_type: "Unsqueeze"
    attribute {
      name: "axes"
      ints: 0
      type: INTS
    }
  }
  node {
    input: "523"
    output: "635"
    name: "Unsqueeze_271"
    op_type: "Unsqueeze"
    attribute {
      name: "axes"
      ints: 0
      type: INTS
    }
  }
  node {
    input: "617"
    output: "636"
    name: "Unsqueeze_272"
    op_type: "Unsqueeze"
    attribute {
      name: "axes"
      ints: 0
      type: INTS
    }
  }
  node {
    input: "634"
    input: "635"
    input: "636"
    output: "637"
    name: "Concat_273"
    op_type: "Concat"
    attribute {
      name: "axis"
      i: 0
      type: INT
    }
  }
  node {
    input: "631"
    input: "637"
    output: "638"
    name: "Reshape_274"
    op_type: "Reshape"
  }
  node {
    input: "638"
    output: "639"
    name: "Softmax_275"
    op_type: "Softmax"
    attribute {
      name: "axis"
      i: 2
      type: INT
    }
  }
  node {
    input: "639"
    input: "614"
    output: "640"
    name: "MatMul_276"
    op_type: "MatMul"
  }
  node {
    input: "640"
    output: "641"
    name: "Transpose_277"
    op_type: "Transpose"
    attribute {
      name: "perm"
      ints: 1
      ints: 0
      ints: 2
      type: INTS
    }
  }
  node {
    input: "523"
    output: "642"
    name: "Unsqueeze_278"
    op_type: "Unsqueeze"
    attribute {
      name: "axes"
      ints: 0
      type: INTS
    }
  }
  node {
    input: "526"
    output: "643"
    name: "Unsqueeze_279"
    op_type: "Unsqueeze"
    attribute {
      name: "axes"
      ints: 0
      type: INTS
    }
  }
  node {
    input: "529"
    output: "644"
    name: "Unsqueeze_280"
    op_type: "Unsqueeze"
    attribute {
      name: "axes"
      ints: 0
      type: INTS
    }
  }
  node {
    input: "642"
    input: "643"
    input: "644"
    output: "645"
    name: "Concat_281"
    op_type: "Concat"
    attribute {
      name: "axis"
      i: 0
      type: INT
    }
  }
  node {
    input: "641"
    input: "645"
    output: "646"
    name: "Reshape_282"
    op_type: "Reshape"
  }
  node {
    input: "646"
    input: "1581"
    output: "648"
    name: "MatMul_283"
    op_type: "MatMul"
  }
  node {
    input: "648"
    input: "module.transformer.encoder.layers.0.self_attn.out_proj.bias"
    output: "649"
    name: "Add_284"
    op_type: "Add"
  }
  node {
    input: "492"
    input: "649"
    output: "650"
    name: "Add_285"
    op_type: "Add"
  }
  node {
    input: "650"
    output: "651"
    name: "ReduceMean_286"
    op_type: "ReduceMean"
    attribute {
      name: "axes"
      ints: -1
      type: INTS
    }
  }
  node {
    input: "650"
    input: "651"
    output: "652"
    name: "Sub_287"
    op_type: "Sub"
  }
  node {
    output: "653"
    name: "Constant_288"
    op_type: "Constant"
    attribute {
      name: "value"
      t {
        data_type: 1
        raw_data: "\000\000\000@"
      }
      type: TENSOR
    }
  }
  node {
    input: "652"
    input: "653"
    output: "654"
    name: "Pow_289"
    op_type: "Pow"
  }
  node {
    input: "654"
    output: "655"
    name: "ReduceMean_290"
    op_type: "ReduceMean"
    attribute {
      name: "axes"
      ints: -1
      type: INTS
    }
  }
  node {
    output: "656"
    name: "Constant_291"
    op_type: "Constant"
    attribute {
      name: "value"
      t {
        data_type: 1
        raw_data: "\254\305\'7"
      }
      type: TENSOR
    }
  }
  node {
    input: "655"
    input: "656"
    output: "657"
    name: "Add_292"
    op_type: "Add"
  }
  node {
    input: "657"
    output: "658"
    name: "Sqrt_293"
    op_type: "Sqrt"
  }
  node {
    input: "652"
    input: "658"
    output: "659"
    name: "Div_294"
    op_type: "Div"
  }
  node {
    input: "659"
    input: "module.transformer.encoder.layers.0.norm1.weight"
    output: "660"
    name: "Mul_295"
    op_type: "Mul"
  }
  node {
    input: "660"
    input: "module.transformer.encoder.layers.0.norm1.bias"
    output: "661"
    name: "Add_296"
    op_type: "Add"
  }
  node {
    input: "661"
    input: "1582"
    output: "663"
    name: "MatMul_297"
    op_type: "MatMul"
  }
  node {
    input: "663"
    input: "module.transformer.encoder.layers.0.linear1.bias"
    output: "664"
    name: "Add_298"
    op_type: "Add"
  }
  node {
    input: "664"
    output: "665"
    name: "Relu_299"
    op_type: "Relu"
  }
  node {
    input: "665"
    input: "1583"
    output: "667"
    name: "MatMul_300"
    op_type: "MatMul"
  }
  node {
    input: "667"
    input: "module.transformer.encoder.layers.0.linear2.bias"
    output: "668"
    name: "Add_301"
    op_type: "Add"
  }
  node {
    input: "661"
    input: "668"
    output: "669"
    name: "Add_302"
    op_type: "Add"
  }
  node {
    input: "669"
    output: "670"
    name: "ReduceMean_303"
    op_type: "ReduceMean"
    attribute {
      name: "axes"
      ints: -1
      type: INTS
    }
  }
  node {
    input: "669"
    input: "670"
    output: "671"
    name: "Sub_304"
    op_type: "Sub"
  }
  node {
    output: "672"
    name: "Constant_305"
    op_type: "Constant"
    attribute {
      name: "value"
      t {
        data_type: 1
        raw_data: "\000\000\000@"
      }
      type: TENSOR
    }
  }
  node {
    input: "671"
    input: "672"
    output: "673"
    name: "Pow_306"
    op_type: "Pow"
  }
  node {
    input: "673"
    output: "674"
    name: "ReduceMean_307"
    op_type: "ReduceMean"
    attribute {
      name: "axes"
      ints: -1
      type: INTS
    }
  }
  node {
    output: "675"
    name: "Constant_308"
    op_type: "Constant"
    attribute {
      name: "value"
      t {
        data_type: 1
        raw_data: "\254\305\'7"
      }
      type: TENSOR
    }
  }
  node {
    input: "674"
    input: "675"
    output: "676"
    name: "Add_309"
    op_type: "Add"
  }
  node {
    input: "676"
    output: "677"
    name: "Sqrt_310"
    op_type: "Sqrt"
  }
  node {
    input: "671"
    input: "677"
    output: "678"
    name: "Div_311"
    op_type: "Div"
  }
  node {
    input: "678"
    input: "module.transformer.encoder.layers.0.norm2.weight"
    output: "679"
    name: "Mul_312"
    op_type: "Mul"
  }
  node {
    input: "679"
    input: "module.transformer.encoder.layers.0.norm2.bias"
    output: "680"
    name: "Add_313"
    op_type: "Add"
  }
  node {
    input: "680"
    input: "501"
    output: "681"
    name: "Add_314"
    op_type: "Add"
  }
  node {
    input: "681"
    output: "682"
    name: "Shape_315"
    op_type: "Shape"
  }
  node {
    output: "683"
    name: "Constant_316"
    op_type: "Constant"
    attribute {
      name: "value"
      t {
        data_type: 7
        raw_data: "\000\000\000\000\000\000\000\000"
      }
      type: TENSOR
    }
  }
  node {
    input: "682"
    input: "683"
    output: "684"
    name: "Gather_317"
    op_type: "Gather"
    attribute {
      name: "axis"
      i: 0
      type: INT
    }
  }
  node {
    input: "681"
    output: "685"
    name: "Shape_318"
    op_type: "Shape"
  }
  node {
    output: "686"
    name: "Constant_319"
    op_type: "Constant"
    attribute {
      name: "value"
      t {
        data_type: 7
        raw_data: "\001\000\000\000\000\000\000\000"
      }
      type: TENSOR
    }
  }
  node {
    input: "685"
    input: "686"
    output: "687"
    name: "Gather_320"
    op_type: "Gather"
    attribute {
      name: "axis"
      i: 0
      type: INT
    }
  }
  node {
    input: "681"
    output: "688"
    name: "Shape_321"
    op_type: "Shape"
  }
  node {
    output: "689"
    name: "Constant_322"
    op_type: "Constant"
    attribute {
      name: "value"
      t {
        data_type: 7
        raw_data: "\002\000\000\000\000\000\000\000"
      }
      type: TENSOR
    }
  }
  node {
    input: "688"
    input: "689"
    output: "690"
    name: "Gather_323"
    op_type: "Gather"
    attribute {
      name: "axis"
      i: 0
      type: INT
    }
  }
  node {
    output: "691"
    name: "Constant_324"
    op_type: "Constant"
    attribute {
      name: "value"
      t {
        data_type: 7
        raw_data: "\002\000\000\000\000\000\000\000"
      }
      type: TENSOR
    }
  }
  node {
    input: "690"
    input: "691"
    output: "692"
    name: "Div_325"
    op_type: "Div"
  }
  node {
    input: "692"
    output: "693"
    name: "Cast_326"
    op_type: "Cast"
    attribute {
      name: "to"
      i: 7
      type: INT
    }
  }
  node {
    input: "693"
    output: "694"
    name: "Cast_327"
    op_type: "Cast"
    attribute {
      name: "to"
      i: 7
      type: INT
    }
  }
  node {
    input: "690"
    output: "698"
    name: "Unsqueeze_328"
    op_type: "Unsqueeze"
    attribute {
      name: "axes"
      ints: 0
      type: INTS
    }
  }
  node {
    output: "700"
    name: "Constant_329"
    op_type: "Constant"
    attribute {
      name: "value"
      t {
        dims: 1
        data_type: 7
        raw_data: "\001\000\000\000\000\000\000\000"
      }
      type: TENSOR
    }
  }
  node {
    input: "module.transformer.encoder.layers.1.self_attn.in_proj_weight"
    input: "1584"
    input: "698"
    input: "1585"
    input: "700"
    output: "701"
    name: "Slice_330"
    op_type: "Slice"
  }
  node {
    input: "690"
    output: "705"
    name: "Unsqueeze_331"
    op_type: "Unsqueeze"
    attribute {
      name: "axes"
      ints: 0
      type: INTS
    }
  }
  node {
    output: "707"
    name: "Constant_332"
    op_type: "Constant"
    attribute {
      name: "value"
      t {
        dims: 1
        data_type: 7
        raw_data: "\001\000\000\000\000\000\000\000"
      }
      type: TENSOR
    }
  }
  node {
    input: "module.transformer.encoder.layers.1.self_attn.in_proj_bias"
    input: "1586"
    input: "705"
    input: "1587"
    input: "707"
    output: "708"
    name: "Slice_333"
    op_type: "Slice"
  }
  node {
    input: "701"
    output: "709"
    name: "Transpose_334"
    op_type: "Transpose"
    attribute {
      name: "perm"
      ints: 1
      ints: 0
      type: INTS
    }
  }
  node {
    input: "681"
    input: "709"
    output: "710"
    name: "MatMul_335"
    op_type: "MatMul"
  }
  node {
    input: "710"
    input: "708"
    output: "711"
    name: "Add_336"
    op_type: "Add"
  }
  node {
    output: "712"
    name: "Constant_337"
    op_type: "Constant"
    attribute {
      name: "value"
      t {
        data_type: 7
        raw_data: "\002\000\000\000\000\000\000\000"
      }
      type: TENSOR
    }
  }
  node {
    input: "690"
    input: "712"
    output: "713"
    name: "Mul_338"
    op_type: "Mul"
  }
  node {
    input: "690"
    output: "715"
    name: "Unsqueeze_339"
    op_type: "Unsqueeze"
    attribute {
      name: "axes"
      ints: 0
      type: INTS
    }
  }
  node {
    input: "713"
    output: "716"
    name: "Unsqueeze_340"
    op_type: "Unsqueeze"
    attribute {
      name: "axes"
      ints: 0
      type: INTS
    }
  }
  node {
    output: "718"
    name: "Constant_341"
    op_type: "Constant"
    attribute {
      name: "value"
      t {
        dims: 1
        data_type: 7
        raw_data: "\001\000\000\000\000\000\000\000"
      }
      type: TENSOR
    }
  }
  node {
    input: "module.transformer.encoder.layers.1.self_attn.in_proj_weight"
    input: "715"
    input: "716"
    input: "1588"
    input: "718"
    output: "719"
    name: "Slice_342"
    op_type: "Slice"
  }
  node {
    input: "690"
    output: "721"
    name: "Unsqueeze_343"
    op_type: "Unsqueeze"
    attribute {
      name: "axes"
      ints: 0
      type: INTS
    }
  }
  node {
    input: "713"
    output: "722"
    name: "Unsqueeze_344"
    op_type: "Unsqueeze"
    attribute {
      name: "axes"
      ints: 0
      type: INTS
    }
  }
  node {
    output: "724"
    name: "Constant_345"
    op_type: "Constant"
    attribute {
      name: "value"
      t {
        dims: 1
        data_type: 7
        raw_data: "\001\000\000\000\000\000\000\000"
      }
      type: TENSOR
    }
  }
  node {
    input: "module.transformer.encoder.layers.1.self_attn.in_proj_bias"
    input: "721"
    input: "722"
    input: "1589"
    input: "724"
    output: "725"
    name: "Slice_346"
    op_type: "Slice"
  }
  node {
    input: "719"
    output: "726"
    name: "Transpose_347"
    op_type: "Transpose"
    attribute {
      name: "perm"
      ints: 1
      ints: 0
      type: INTS
    }
  }
  node {
    input: "681"
    input: "726"
    output: "727"
    name: "MatMul_348"
    op_type: "MatMul"
  }
  node {
    input: "727"
    input: "725"
    output: "728"
    name: "Add_349"
    op_type: "Add"
  }
  node {
    output: "729"
    name: "Constant_350"
    op_type: "Constant"
    attribute {
      name: "value"
      t {
        data_type: 7
        raw_data: "\002\000\000\000\000\000\000\000"
      }
      type: TENSOR
    }
  }
  node {
    input: "690"
    input: "729"
    output: "730"
    name: "Mul_351"
    op_type: "Mul"
  }
  node {
    input: "730"
    output: "733"
    name: "Unsqueeze_352"
    op_type: "Unsqueeze"
    attribute {
      name: "axes"
      ints: 0
      type: INTS
    }
  }
  node {
    output: "736"
    name: "Constant_353"
    op_type: "Constant"
    attribute {
      name: "value"
      t {
        dims: 1
        data_type: 7
        raw_data: "\001\000\000\000\000\000\000\000"
      }
      type: TENSOR
    }
  }
  node {
    input: "module.transformer.encoder.layers.1.self_attn.in_proj_weight"
    input: "733"
    input: "1590"
    input: "1591"
    input: "736"
    output: "737"
    name: "Slice_354"
    op_type: "Slice"
  }
  node {
    input: "730"
    output: "740"
    name: "Unsqueeze_355"
    op_type: "Unsqueeze"
    attribute {
      name: "axes"
      ints: 0
      type: INTS
    }
  }
  node {
    output: "743"
    name: "Constant_356"
    op_type: "Constant"
    attribute {
      name: "value"
      t {
        dims: 1
        data_type: 7
        raw_data: "\001\000\000\000\000\000\000\000"
      }
      type: TENSOR
    }
  }
  node {
    input: "module.transformer.encoder.layers.1.self_attn.in_proj_bias"
    input: "740"
    input: "1592"
    input: "1593"
    input: "743"
    output: "744"
    name: "Slice_357"
    op_type: "Slice"
  }
  node {
    input: "737"
    output: "745"
    name: "Transpose_358"
    op_type: "Transpose"
    attribute {
      name: "perm"
      ints: 1
      ints: 0
      type: INTS
    }
  }
  node {
    input: "680"
    input: "745"
    output: "746"
    name: "MatMul_359"
    op_type: "MatMul"
  }
  node {
    input: "746"
    input: "744"
    output: "747"
    name: "Add_360"
    op_type: "Add"
  }
  node {
    output: "748"
    name: "Constant_361"
    op_type: "Constant"
    attribute {
      name: "value"
      t {
        data_type: 1
        raw_data: "\000\000\200>"
      }
      type: TENSOR
    }
  }
  node {
    input: "711"
    input: "748"
    output: "749"
    name: "Mul_362"
    op_type: "Mul"
  }
  node {
    output: "750"
    name: "Constant_363"
    op_type: "Constant"
    attribute {
      name: "value"
      t {
        data_type: 7
        raw_data: "\002\000\000\000\000\000\000\000"
      }
      type: TENSOR
    }
  }
  node {
    input: "687"
    input: "750"
    output: "751"
    name: "Mul_364"
    op_type: "Mul"
  }
  node {
    input: "684"
    output: "752"
    name: "Unsqueeze_365"
    op_type: "Unsqueeze"
    attribute {
      name: "axes"
      ints: 0
      type: INTS
    }
  }
  node {
    input: "751"
    output: "753"
    name: "Unsqueeze_366"
    op_type: "Unsqueeze"
    attribute {
      name: "axes"
      ints: 0
      type: INTS
    }
  }
  node {
    input: "694"
    output: "754"
    name: "Unsqueeze_367"
    op_type: "Unsqueeze"
    attribute {
      name: "axes"
      ints: 0
      type: INTS
    }
  }
  node {
    input: "752"
    input: "753"
    input: "754"
    output: "755"
    name: "Concat_368"
    op_type: "Concat"
    attribute {
      name: "axis"
      i: 0
      type: INT
    }
  }
  node {
    input: "749"
    input: "755"
    output: "756"
    name: "Reshape_369"
    op_type: "Reshape"
  }
  node {
    input: "756"
    output: "757"
    name: "Transpose_370"
    op_type: "Transpose"
    attribute {
      name: "perm"
      ints: 1
      ints: 0
      ints: 2
      type: INTS
    }
  }
  node {
    output: "758"
    name: "Constant_371"
    op_type: "Constant"
    attribute {
      name: "value"
      t {
        data_type: 7
        raw_data: "\002\000\000\000\000\000\000\000"
      }
      type: TENSOR
    }
  }
  node {
    input: "687"
    input: "758"
    output: "759"
    name: "Mul_372"
    op_type: "Mul"
  }
  node {
    input: "759"
    output: "762"
    name: "Unsqueeze_373"
    op_type: "Unsqueeze"
    attribute {
      name: "axes"
      ints: 0
      type: INTS
    }
  }
  node {
    input: "694"
    output: "763"
    name: "Unsqueeze_374"
    op_type: "Unsqueeze"
    attribute {
      name: "axes"
      ints: 0
      type: INTS
    }
  }
  node {
    input: "1594"
    input: "762"
    input: "763"
    output: "764"
    name: "Concat_375"
    op_type: "Concat"
    attribute {
      name: "axis"
      i: 0
      type: INT
    }
  }
  node {
    input: "728"
    input: "764"
    output: "765"
    name: "Reshape_376"
    op_type: "Reshape"
  }
  node {
    input: "765"
    output: "766"
    name: "Transpose_377"
    op_type: "Transpose"
    attribute {
      name: "perm"
      ints: 1
      ints: 0
      ints: 2
      type: INTS
    }
  }
  node {
    output: "767"
    name: "Constant_378"
    op_type: "Constant"
    attribute {
      name: "value"
      t {
        data_type: 7
        raw_data: "\002\000\000\000\000\000\000\000"
      }
      type: TENSOR
    }
  }
  node {
    input: "687"
    input: "767"
    output: "768"
    name: "Mul_379"
    op_type: "Mul"
  }
  node {
    input: "768"
    output: "771"
    name: "Unsqueeze_380"
    op_type: "Unsqueeze"
    attribute {
      name: "axes"
      ints: 0
      type: INTS
    }
  }
  node {
    input: "694"
    output: "772"
    name: "Unsqueeze_381"
    op_type: "Unsqueeze"
    attribute {
      name: "axes"
      ints: 0
      type: INTS
    }
  }
  node {
    input: "1595"
    input: "771"
    input: "772"
    output: "773"
    name: "Concat_382"
    op_type: "Concat"
    attribute {
      name: "axis"
      i: 0
      type: INT
    }
  }
  node {
    input: "747"
    input: "773"
    output: "774"
    name: "Reshape_383"
    op_type: "Reshape"
  }
  node {
    input: "774"
    output: "775"
    name: "Transpose_384"
    op_type: "Transpose"
    attribute {
      name: "perm"
      ints: 1
      ints: 0
      ints: 2
      type: INTS
    }
  }
  node {
    input: "766"
    output: "776"
    name: "Shape_385"
    op_type: "Shape"
  }
  node {
    output: "777"
    name: "Constant_386"
    op_type: "Constant"
    attribute {
      name: "value"
      t {
        data_type: 7
        raw_data: "\001\000\000\000\000\000\000\000"
      }
      type: TENSOR
    }
  }
  node {
    input: "776"
    input: "777"
    output: "778"
    name: "Gather_387"
    op_type: "Gather"
    attribute {
      name: "axis"
      i: 0
      type: INT
    }
  }
  node {
    input: "765"
    output: "779"
    name: "Transpose_388"
    op_type: "Transpose"
    attribute {
      name: "perm"
      ints: 1
      ints: 2
      ints: 0
      type: INTS
    }
  }
  node {
    input: "757"
    input: "779"
    output: "780"
    name: "MatMul_389"
    op_type: "MatMul"
  }
  node {
    input: "687"
    output: "782"
    name: "Unsqueeze_390"
    op_type: "Unsqueeze"
    attribute {
      name: "axes"
      ints: 0
      type: INTS
    }
  }
  node {
    input: "684"
    output: "784"
    name: "Unsqueeze_391"
    op_type: "Unsqueeze"
    attribute {
      name: "axes"
      ints: 0
      type: INTS
    }
  }
  node {
    input: "778"
    output: "785"
    name: "Unsqueeze_392"
    op_type: "Unsqueeze"
    attribute {
      name: "axes"
      ints: 0
      type: INTS
    }
  }
  node {
    input: "782"
    input: "1596"
    input: "784"
    input: "785"
    output: "786"
    name: "Concat_393"
    op_type: "Concat"
    attribute {
      name: "axis"
      i: 0
      type: INT
    }
  }
  node {
    input: "780"
    input: "786"
    output: "787"
    name: "Reshape_394"
    op_type: "Reshape"
  }
  node {
    input: "517"
    output: "788"
    name: "Unsqueeze_395"
    op_type: "Unsqueeze"
    attribute {
      name: "axes"
      ints: 1
      type: INTS
    }
  }
  node {
    input: "788"
    output: "789"
    name: "Unsqueeze_396"
    op_type: "Unsqueeze"
    attribute {
      name: "axes"
      ints: 2
      type: INTS
    }
  }
  node {
    input: "789"
    output: "790"
    name: "Cast_397"
    op_type: "Cast"
    attribute {
      name: "to"
      i: 9
      type: INT
    }
  }
  node {
    output: "791"
    name: "Constant_398"
    op_type: "Constant"
    attribute {
      name: "value"
      t {
        data_type: 1
        raw_data: "\000\000\200\377"
      }
      type: TENSOR
    }
  }
  node {
    input: "790"
    input: "791"
    input: "787"
    output: "792"
    name: "Where_399"
    op_type: "Where"
  }
  node {
    output: "793"
    name: "Constant_400"
    op_type: "Constant"
    attribute {
      name: "value"
      t {
        data_type: 7
        raw_data: "\002\000\000\000\000\000\000\000"
      }
      type: TENSOR
    }
  }
  node {
    input: "687"
    input: "793"
    output: "794"
    name: "Mul_401"
    op_type: "Mul"
  }
  node {
    input: "794"
    output: "795"
    name: "Unsqueeze_402"
    op_type: "Unsqueeze"
    attribute {
      name: "axes"
      ints: 0
      type: INTS
    }
  }
  node {
    input: "684"
    output: "796"
    name: "Unsqueeze_403"
    op_type: "Unsqueeze"
    attribute {
      name: "axes"
      ints: 0
      type: INTS
    }
  }
  node {
    input: "778"
    output: "797"
    name: "Unsqueeze_404"
    op_type: "Unsqueeze"
    attribute {
      name: "axes"
      ints: 0
      type: INTS
    }
  }
  node {
    input: "795"
    input: "796"
    input: "797"
    output: "798"
    name: "Concat_405"
    op_type: "Concat"
    attribute {
      name: "axis"
      i: 0
      type: INT
    }
  }
  node {
    input: "792"
    input: "798"
    output: "799"
    name: "Reshape_406"
    op_type: "Reshape"
  }
  node {
    input: "799"
    output: "800"
    name: "Softmax_407"
    op_type: "Softmax"
    attribute {
      name: "axis"
      i: 2
      type: INT
    }
  }
  node {
    input: "800"
    input: "775"
    output: "801"
    name: "MatMul_408"
    op_type: "MatMul"
  }
  node {
    input: "801"
    output: "802"
    name: "Transpose_409"
    op_type: "Transpose"
    attribute {
      name: "perm"
      ints: 1
      ints: 0
      ints: 2
      type: INTS
    }
  }
  node {
    input: "684"
    output: "803"
    name: "Unsqueeze_410"
    op_type: "Unsqueeze"
    attribute {
      name: "axes"
      ints: 0
      type: INTS
    }
  }
  node {
    input: "687"
    output: "804"
    name: "Unsqueeze_411"
    op_type: "Unsqueeze"
    attribute {
      name: "axes"
      ints: 0
      type: INTS
    }
  }
  node {
    input: "690"
    output: "805"
    name: "Unsqueeze_412"
    op_type: "Unsqueeze"
    attribute {
      name: "axes"
      ints: 0
      type: INTS
    }
  }
  node {
    input: "803"
    input: "804"
    input: "805"
    output: "806"
    name: "Concat_413"
    op_type: "Concat"
    attribute {
      name: "axis"
      i: 0
      type: INT
    }
  }
  node {
    input: "802"
    input: "806"
    output: "807"
    name: "Reshape_414"
    op_type: "Reshape"
  }
  node {
    input: "807"
    input: "1597"
    output: "809"
    name: "MatMul_415"
    op_type: "MatMul"
  }
  node {
    input: "809"
    input: "module.transformer.encoder.layers.1.self_attn.out_proj.bias"
    output: "810"
    name: "Add_416"
    op_type: "Add"
  }
  node {
    input: "687"
    output: "812"
    name: "Unsqueeze_417"
    op_type: "Unsqueeze"
    attribute {
      name: "axes"
      ints: 0
      type: INTS
    }
  }
  node {
    input: "684"
    output: "814"
    name: "Unsqueeze_418"
    op_type: "Unsqueeze"
    attribute {
      name: "axes"
      ints: 0
      type: INTS
    }
  }
  node {
    input: "778"
    output: "815"
    name: "Unsqueeze_419"
    op_type: "Unsqueeze"
    attribute {
      name: "axes"
      ints: 0
      type: INTS
    }
  }
  node {
    input: "812"
    input: "1598"
    input: "814"
    input: "815"
    output: "816"
    name: "Concat_420"
    op_type: "Concat"
    attribute {
      name: "axis"
      i: 0
      type: INT
    }
  }
  node {
    input: "800"
    input: "816"
    output: "817"
    name: "Reshape_421"
    op_type: "Reshape"
  }
  node {
    input: "817"
    output: "818"
    name: "ReduceSum_422"
    op_type: "ReduceSum"
    attribute {
      name: "axes"
      ints: 1
      type: INTS
    }
    attribute {
      name: "keepdims"
      i: 0
      type: INT
    }
  }
  node {
    input: "818"
    input: "1599"
    output: "weights"
    name: "Div_423"
    op_type: "Div"
  }
  node {
    input: "680"
    input: "810"
    output: "822"
    name: "Add_424"
    op_type: "Add"
  }
  node {
    input: "822"
    output: "823"
    name: "ReduceMean_425"
    op_type: "ReduceMean"
    attribute {
      name: "axes"
      ints: -1
      type: INTS
    }
  }
  node {
    input: "822"
    input: "823"
    output: "824"
    name: "Sub_426"
    op_type: "Sub"
  }
  node {
    output: "825"
    name: "Constant_427"
    op_type: "Constant"
    attribute {
      name: "value"
      t {
        data_type: 1
        raw_data: "\000\000\000@"
      }
      type: TENSOR
    }
  }
  node {
    input: "824"
    input: "825"
    output: "826"
    name: "Pow_428"
    op_type: "Pow"
  }
  node {
    input: "826"
    output: "827"
    name: "ReduceMean_429"
    op_type: "ReduceMean"
    attribute {
      name: "axes"
      ints: -1
      type: INTS
    }
  }
  node {
    output: "828"
    name: "Constant_430"
    op_type: "Constant"
    attribute {
      name: "value"
      t {
        data_type: 1
        raw_data: "\254\305\'7"
      }
      type: TENSOR
    }
  }
  node {
    input: "827"
    input: "828"
    output: "829"
    name: "Add_431"
    op_type: "Add"
  }
  node {
    input: "829"
    output: "830"
    name: "Sqrt_432"
    op_type: "Sqrt"
  }
  node {
    input: "824"
    input: "830"
    output: "831"
    name: "Div_433"
    op_type: "Div"
  }
  node {
    input: "831"
    input: "module.transformer.encoder.layers.1.norm1.weight"
    output: "832"
    name: "Mul_434"
    op_type: "Mul"
  }
  node {
    input: "832"
    input: "module.transformer.encoder.layers.1.norm1.bias"
    output: "833"
    name: "Add_435"
    op_type: "Add"
  }
  node {
    input: "833"
    input: "1600"
    output: "835"
    name: "MatMul_436"
    op_type: "MatMul"
  }
  node {
    input: "835"
    input: "module.transformer.encoder.layers.1.linear1.bias"
    output: "836"
    name: "Add_437"
    op_type: "Add"
  }
  node {
    input: "836"
    output: "837"
    name: "Relu_438"
    op_type: "Relu"
  }
  node {
    input: "837"
    input: "1601"
    output: "839"
    name: "MatMul_439"
    op_type: "MatMul"
  }
  node {
    input: "839"
    input: "module.transformer.encoder.layers.1.linear2.bias"
    output: "840"
    name: "Add_440"
    op_type: "Add"
  }
  node {
    input: "833"
    input: "840"
    output: "841"
    name: "Add_441"
    op_type: "Add"
  }
  node {
    input: "841"
    output: "842"
    name: "ReduceMean_442"
    op_type: "ReduceMean"
    attribute {
      name: "axes"
      ints: -1
      type: INTS
    }
  }
  node {
    input: "841"
    input: "842"
    output: "843"
    name: "Sub_443"
    op_type: "Sub"
  }
  node {
    output: "844"
    name: "Constant_444"
    op_type: "Constant"
    attribute {
      name: "value"
      t {
        data_type: 1
        raw_data: "\000\000\000@"
      }
      type: TENSOR
    }
  }
  node {
    input: "843"
    input: "844"
    output: "845"
    name: "Pow_445"
    op_type: "Pow"
  }
  node {
    input: "845"
    output: "846"
    name: "ReduceMean_446"
    op_type: "ReduceMean"
    attribute {
      name: "axes"
      ints: -1
      type: INTS
    }
  }
  node {
    output: "847"
    name: "Constant_447"
    op_type: "Constant"
    attribute {
      name: "value"
      t {
        data_type: 1
        raw_data: "\254\305\'7"
      }
      type: TENSOR
    }
  }
  node {
    input: "846"
    input: "847"
    output: "848"
    name: "Add_448"
    op_type: "Add"
  }
  node {
    input: "848"
    output: "849"
    name: "Sqrt_449"
    op_type: "Sqrt"
  }
  node {
    input: "843"
    input: "849"
    output: "850"
    name: "Div_450"
    op_type: "Div"
  }
  node {
    input: "850"
    input: "module.transformer.encoder.layers.1.norm2.weight"
    output: "851"
    name: "Mul_451"
    op_type: "Mul"
  }
  node {
    input: "851"
    input: "module.transformer.encoder.layers.1.norm2.bias"
    output: "852"
    name: "Add_452"
    op_type: "Add"
  }
  node {
    input: "519"
    input: "516"
    output: "853"
    name: "Add_453"
    op_type: "Add"
  }
  node {
    input: "853"
    output: "854"
    name: "Shape_454"
    op_type: "Shape"
  }
  node {
    output: "855"
    name: "Constant_455"
    op_type: "Constant"
    attribute {
      name: "value"
      t {
        data_type: 7
        raw_data: "\000\000\000\000\000\000\000\000"
      }
      type: TENSOR
    }
  }
  node {
    input: "854"
    input: "855"
    output: "856"
    name: "Gather_456"
    op_type: "Gather"
    attribute {
      name: "axis"
      i: 0
      type: INT
    }
  }
  node {
    input: "853"
    output: "857"
    name: "Shape_457"
    op_type: "Shape"
  }
  node {
    output: "858"
    name: "Constant_458"
    op_type: "Constant"
    attribute {
      name: "value"
      t {
        data_type: 7
        raw_data: "\001\000\000\000\000\000\000\000"
      }
      type: TENSOR
    }
  }
  node {
    input: "857"
    input: "858"
    output: "859"
    name: "Gather_459"
    op_type: "Gather"
    attribute {
      name: "axis"
      i: 0
      type: INT
    }
  }
  node {
    input: "853"
    output: "860"
    name: "Shape_460"
    op_type: "Shape"
  }
  node {
    output: "861"
    name: "Constant_461"
    op_type: "Constant"
    attribute {
      name: "value"
      t {
        data_type: 7
        raw_data: "\002\000\000\000\000\000\000\000"
      }
      type: TENSOR
    }
  }
  node {
    input: "860"
    input: "861"
    output: "862"
    name: "Gather_462"
    op_type: "Gather"
    attribute {
      name: "axis"
      i: 0
      type: INT
    }
  }
  node {
    output: "863"
    name: "Constant_463"
    op_type: "Constant"
    attribute {
      name: "value"
      t {
        data_type: 7
        raw_data: "\002\000\000\000\000\000\000\000"
      }
      type: TENSOR
    }
  }
  node {
    input: "862"
    input: "863"
    output: "864"
    name: "Div_464"
    op_type: "Div"
  }
  node {
    input: "864"
    output: "865"
    name: "Cast_465"
    op_type: "Cast"
    attribute {
      name: "to"
      i: 7
      type: INT
    }
  }
  node {
    input: "865"
    output: "866"
    name: "Cast_466"
    op_type: "Cast"
    attribute {
      name: "to"
      i: 7
      type: INT
    }
  }
  node {
    input: "862"
    output: "870"
    name: "Unsqueeze_467"
    op_type: "Unsqueeze"
    attribute {
      name: "axes"
      ints: 0
      type: INTS
    }
  }
  node {
    output: "872"
    name: "Constant_468"
    op_type: "Constant"
    attribute {
      name: "value"
      t {
        dims: 1
        data_type: 7
        raw_data: "\001\000\000\000\000\000\000\000"
      }
      type: TENSOR
    }
  }
  node {
    input: "module.transformer.decoder.layers.0.self_attn.in_proj_weight"
    input: "1602"
    input: "870"
    input: "1603"
    input: "872"
    output: "873"
    name: "Slice_469"
    op_type: "Slice"
  }
  node {
    input: "862"
    output: "877"
    name: "Unsqueeze_470"
    op_type: "Unsqueeze"
    attribute {
      name: "axes"
      ints: 0
      type: INTS
    }
  }
  node {
    output: "879"
    name: "Constant_471"
    op_type: "Constant"
    attribute {
      name: "value"
      t {
        dims: 1
        data_type: 7
        raw_data: "\001\000\000\000\000\000\000\000"
      }
      type: TENSOR
    }
  }
  node {
    input: "module.transformer.decoder.layers.0.self_attn.in_proj_bias"
    input: "1604"
    input: "877"
    input: "1605"
    input: "879"
    output: "880"
    name: "Slice_472"
    op_type: "Slice"
  }
  node {
    input: "873"
    output: "881"
    name: "Transpose_473"
    op_type: "Transpose"
    attribute {
      name: "perm"
      ints: 1
      ints: 0
      type: INTS
    }
  }
  node {
    input: "853"
    input: "881"
    output: "882"
    name: "MatMul_474"
    op_type: "MatMul"
  }
  node {
    input: "882"
    input: "880"
    output: "883"
    name: "Add_475"
    op_type: "Add"
  }
  node {
    output: "884"
    name: "Constant_476"
    op_type: "Constant"
    attribute {
      name: "value"
      t {
        data_type: 7
        raw_data: "\002\000\000\000\000\000\000\000"
      }
      type: TENSOR
    }
  }
  node {
    input: "862"
    input: "884"
    output: "885"
    name: "Mul_477"
    op_type: "Mul"
  }
  node {
    input: "862"
    output: "887"
    name: "Unsqueeze_478"
    op_type: "Unsqueeze"
    attribute {
      name: "axes"
      ints: 0
      type: INTS
    }
  }
  node {
    input: "885"
    output: "888"
    name: "Unsqueeze_479"
    op_type: "Unsqueeze"
    attribute {
      name: "axes"
      ints: 0
      type: INTS
    }
  }
  node {
    output: "890"
    name: "Constant_480"
    op_type: "Constant"
    attribute {
      name: "value"
      t {
        dims: 1
        data_type: 7
        raw_data: "\001\000\000\000\000\000\000\000"
      }
      type: TENSOR
    }
  }
  node {
    input: "module.transformer.decoder.layers.0.self_attn.in_proj_weight"
    input: "887"
    input: "888"
    input: "1606"
    input: "890"
    output: "891"
    name: "Slice_481"
    op_type: "Slice"
  }
  node {
    input: "862"
    output: "893"
    name: "Unsqueeze_482"
    op_type: "Unsqueeze"
    attribute {
      name: "axes"
      ints: 0
      type: INTS
    }
  }
  node {
    input: "885"
    output: "894"
    name: "Unsqueeze_483"
    op_type: "Unsqueeze"
    attribute {
      name: "axes"
      ints: 0
      type: INTS
    }
  }
  node {
    output: "896"
    name: "Constant_484"
    op_type: "Constant"
    attribute {
      name: "value"
      t {
        dims: 1
        data_type: 7
        raw_data: "\001\000\000\000\000\000\000\000"
      }
      type: TENSOR
    }
  }
  node {
    input: "module.transformer.decoder.layers.0.self_attn.in_proj_bias"
    input: "893"
    input: "894"
    input: "1607"
    input: "896"
    output: "897"
    name: "Slice_485"
    op_type: "Slice"
  }
  node {
    input: "891"
    output: "898"
    name: "Transpose_486"
    op_type: "Transpose"
    attribute {
      name: "perm"
      ints: 1
      ints: 0
      type: INTS
    }
  }
  node {
    input: "853"
    input: "898"
    output: "899"
    name: "MatMul_487"
    op_type: "MatMul"
  }
  node {
    input: "899"
    input: "897"
    output: "900"
    name: "Add_488"
    op_type: "Add"
  }
  node {
    output: "901"
    name: "Constant_489"
    op_type: "Constant"
    attribute {
      name: "value"
      t {
        data_type: 7
        raw_data: "\002\000\000\000\000\000\000\000"
      }
      type: TENSOR
    }
  }
  node {
    input: "862"
    input: "901"
    output: "902"
    name: "Mul_490"
    op_type: "Mul"
  }
  node {
    input: "902"
    output: "905"
    name: "Unsqueeze_491"
    op_type: "Unsqueeze"
    attribute {
      name: "axes"
      ints: 0
      type: INTS
    }
  }
  node {
    output: "908"
    name: "Constant_492"
    op_type: "Constant"
    attribute {
      name: "value"
      t {
        dims: 1
        data_type: 7
        raw_data: "\001\000\000\000\000\000\000\000"
      }
      type: TENSOR
    }
  }
  node {
    input: "module.transformer.decoder.layers.0.self_attn.in_proj_weight"
    input: "905"
    input: "1608"
    input: "1609"
    input: "908"
    output: "909"
    name: "Slice_493"
    op_type: "Slice"
  }
  node {
    input: "902"
    output: "912"
    name: "Unsqueeze_494"
    op_type: "Unsqueeze"
    attribute {
      name: "axes"
      ints: 0
      type: INTS
    }
  }
  node {
    output: "915"
    name: "Constant_495"
    op_type: "Constant"
    attribute {
      name: "value"
      t {
        dims: 1
        data_type: 7
        raw_data: "\001\000\000\000\000\000\000\000"
      }
      type: TENSOR
    }
  }
  node {
    input: "module.transformer.decoder.layers.0.self_attn.in_proj_bias"
    input: "912"
    input: "1610"
    input: "1611"
    input: "915"
    output: "916"
    name: "Slice_496"
    op_type: "Slice"
  }
  node {
    input: "909"
    output: "917"
    name: "Transpose_497"
    op_type: "Transpose"
    attribute {
      name: "perm"
      ints: 1
      ints: 0
      type: INTS
    }
  }
  node {
    input: "519"
    input: "917"
    output: "918"
    name: "MatMul_498"
    op_type: "MatMul"
  }
  node {
    input: "918"
    input: "916"
    output: "919"
    name: "Add_499"
    op_type: "Add"
  }
  node {
    output: "920"
    name: "Constant_500"
    op_type: "Constant"
    attribute {
      name: "value"
      t {
        data_type: 1
        raw_data: "\000\000\200>"
      }
      type: TENSOR
    }
  }
  node {
    input: "883"
    input: "920"
    output: "921"
    name: "Mul_501"
    op_type: "Mul"
  }
  node {
    output: "922"
    name: "Constant_502"
    op_type: "Constant"
    attribute {
      name: "value"
      t {
        data_type: 7
        raw_data: "\002\000\000\000\000\000\000\000"
      }
      type: TENSOR
    }
  }
  node {
    input: "859"
    input: "922"
    output: "923"
    name: "Mul_503"
    op_type: "Mul"
  }
  node {
    input: "856"
    output: "924"
    name: "Unsqueeze_504"
    op_type: "Unsqueeze"
    attribute {
      name: "axes"
      ints: 0
      type: INTS
    }
  }
  node {
    input: "923"
    output: "925"
    name: "Unsqueeze_505"
    op_type: "Unsqueeze"
    attribute {
      name: "axes"
      ints: 0
      type: INTS
    }
  }
  node {
    input: "866"
    output: "926"
    name: "Unsqueeze_506"
    op_type: "Unsqueeze"
    attribute {
      name: "axes"
      ints: 0
      type: INTS
    }
  }
  node {
    input: "924"
    input: "925"
    input: "926"
    output: "927"
    name: "Concat_507"
    op_type: "Concat"
    attribute {
      name: "axis"
      i: 0
      type: INT
    }
  }
  node {
    input: "921"
    input: "927"
    output: "928"
    name: "Reshape_508"
    op_type: "Reshape"
  }
  node {
    input: "928"
    output: "929"
    name: "Transpose_509"
    op_type: "Transpose"
    attribute {
      name: "perm"
      ints: 1
      ints: 0
      ints: 2
      type: INTS
    }
  }
  node {
    output: "930"
    name: "Constant_510"
    op_type: "Constant"
    attribute {
      name: "value"
      t {
        data_type: 7
        raw_data: "\002\000\000\000\000\000\000\000"
      }
      type: TENSOR
    }
  }
  node {
    input: "859"
    input: "930"
    output: "931"
    name: "Mul_511"
    op_type: "Mul"
  }
  node {
    input: "931"
    output: "934"
    name: "Unsqueeze_512"
    op_type: "Unsqueeze"
    attribute {
      name: "axes"
      ints: 0
      type: INTS
    }
  }
  node {
    input: "866"
    output: "935"
    name: "Unsqueeze_513"
    op_type: "Unsqueeze"
    attribute {
      name: "axes"
      ints: 0
      type: INTS
    }
  }
  node {
    input: "1612"
    input: "934"
    input: "935"
    output: "936"
    name: "Concat_514"
    op_type: "Concat"
    attribute {
      name: "axis"
      i: 0
      type: INT
    }
  }
  node {
    input: "900"
    input: "936"
    output: "937"
    name: "Reshape_515"
    op_type: "Reshape"
  }
  node {
    output: "938"
    name: "Constant_516"
    op_type: "Constant"
    attribute {
      name: "value"
      t {
        data_type: 7
        raw_data: "\002\000\000\000\000\000\000\000"
      }
      type: TENSOR
    }
  }
  node {
    input: "859"
    input: "938"
    output: "939"
    name: "Mul_517"
    op_type: "Mul"
  }
  node {
    input: "939"
    output: "942"
    name: "Unsqueeze_518"
    op_type: "Unsqueeze"
    attribute {
      name: "axes"
      ints: 0
      type: INTS
    }
  }
  node {
    input: "866"
    output: "943"
    name: "Unsqueeze_519"
    op_type: "Unsqueeze"
    attribute {
      name: "axes"
      ints: 0
      type: INTS
    }
  }
  node {
    input: "1613"
    input: "942"
    input: "943"
    output: "944"
    name: "Concat_520"
    op_type: "Concat"
    attribute {
      name: "axis"
      i: 0
      type: INT
    }
  }
  node {
    input: "919"
    input: "944"
    output: "945"
    name: "Reshape_521"
    op_type: "Reshape"
  }
  node {
    input: "945"
    output: "946"
    name: "Transpose_522"
    op_type: "Transpose"
    attribute {
      name: "perm"
      ints: 1
      ints: 0
      ints: 2
      type: INTS
    }
  }
  node {
    input: "937"
    output: "947"
    name: "Transpose_523"
    op_type: "Transpose"
    attribute {
      name: "perm"
      ints: 1
      ints: 2
      ints: 0
      type: INTS
    }
  }
  node {
    input: "929"
    input: "947"
    output: "948"
    name: "MatMul_524"
    op_type: "MatMul"
  }
  node {
    input: "948"
    output: "949"
    name: "Softmax_525"
    op_type: "Softmax"
    attribute {
      name: "axis"
      i: 2
      type: INT
    }
  }
  node {
    input: "949"
    input: "946"
    output: "950"
    name: "MatMul_526"
    op_type: "MatMul"
  }
  node {
    input: "950"
    output: "951"
    name: "Transpose_527"
    op_type: "Transpose"
    attribute {
      name: "perm"
      ints: 1
      ints: 0
      ints: 2
      type: INTS
    }
  }
  node {
    input: "856"
    output: "952"
    name: "Unsqueeze_528"
    op_type: "Unsqueeze"
    attribute {
      name: "axes"
      ints: 0
      type: INTS
    }
  }
  node {
    input: "859"
    output: "953"
    name: "Unsqueeze_529"
    op_type: "Unsqueeze"
    attribute {
      name: "axes"
      ints: 0
      type: INTS
    }
  }
  node {
    input: "862"
    output: "954"
    name: "Unsqueeze_530"
    op_type: "Unsqueeze"
    attribute {
      name: "axes"
      ints: 0
      type: INTS
    }
  }
  node {
    input: "952"
    input: "953"
    input: "954"
    output: "955"
    name: "Concat_531"
    op_type: "Concat"
    attribute {
      name: "axis"
      i: 0
      type: INT
    }
  }
  node {
    input: "951"
    input: "955"
    output: "956"
    name: "Reshape_532"
    op_type: "Reshape"
  }
  node {
    input: "956"
    input: "1614"
    output: "958"
    name: "MatMul_533"
    op_type: "MatMul"
  }
  node {
    input: "958"
    input: "module.transformer.decoder.layers.0.self_attn.out_proj.bias"
    output: "959"
    name: "Add_534"
    op_type: "Add"
  }
  node {
    input: "519"
    input: "959"
    output: "960"
    name: "Add_535"
    op_type: "Add"
  }
  node {
    input: "960"
    output: "961"
    name: "ReduceMean_536"
    op_type: "ReduceMean"
    attribute {
      name: "axes"
      ints: -1
      type: INTS
    }
  }
  node {
    input: "960"
    input: "961"
    output: "962"
    name: "Sub_537"
    op_type: "Sub"
  }
  node {
    output: "963"
    name: "Constant_538"
    op_type: "Constant"
    attribute {
      name: "value"
      t {
        data_type: 1
        raw_data: "\000\000\000@"
      }
      type: TENSOR
    }
  }
  node {
    input: "962"
    input: "963"
    output: "964"
    name: "Pow_539"
    op_type: "Pow"
  }
  node {
    input: "964"
    output: "965"
    name: "ReduceMean_540"
    op_type: "ReduceMean"
    attribute {
      name: "axes"
      ints: -1
      type: INTS
    }
  }
  node {
    output: "966"
    name: "Constant_541"
    op_type: "Constant"
    attribute {
      name: "value"
      t {
        data_type: 1
        raw_data: "\254\305\'7"
      }
      type: TENSOR
    }
  }
  node {
    input: "965"
    input: "966"
    output: "967"
    name: "Add_542"
    op_type: "Add"
  }
  node {
    input: "967"
    output: "968"
    name: "Sqrt_543"
    op_type: "Sqrt"
  }
  node {
    input: "962"
    input: "968"
    output: "969"
    name: "Div_544"
    op_type: "Div"
  }
  node {
    input: "969"
    input: "module.transformer.decoder.layers.0.norm1.weight"
    output: "970"
    name: "Mul_545"
    op_type: "Mul"
  }
  node {
    input: "970"
    input: "module.transformer.decoder.layers.0.norm1.bias"
    output: "971"
    name: "Add_546"
    op_type: "Add"
  }
  node {
    input: "971"
    input: "516"
    output: "972"
    name: "Add_547"
    op_type: "Add"
  }
  node {
    input: "852"
    input: "501"
    output: "973"
    name: "Add_548"
    op_type: "Add"
  }
  node {
    input: "972"
    output: "974"
    name: "Shape_549"
    op_type: "Shape"
  }
  node {
    output: "975"
    name: "Constant_550"
    op_type: "Constant"
    attribute {
      name: "value"
      t {
        data_type: 7
        raw_data: "\000\000\000\000\000\000\000\000"
      }
      type: TENSOR
    }
  }
  node {
    input: "974"
    input: "975"
    output: "976"
    name: "Gather_551"
    op_type: "Gather"
    attribute {
      name: "axis"
      i: 0
      type: INT
    }
  }
  node {
    input: "972"
    output: "977"
    name: "Shape_552"
    op_type: "Shape"
  }
  node {
    output: "978"
    name: "Constant_553"
    op_type: "Constant"
    attribute {
      name: "value"
      t {
        data_type: 7
        raw_data: "\001\000\000\000\000\000\000\000"
      }
      type: TENSOR
    }
  }
  node {
    input: "977"
    input: "978"
    output: "979"
    name: "Gather_554"
    op_type: "Gather"
    attribute {
      name: "axis"
      i: 0
      type: INT
    }
  }
  node {
    input: "972"
    output: "980"
    name: "Shape_555"
    op_type: "Shape"
  }
  node {
    output: "981"
    name: "Constant_556"
    op_type: "Constant"
    attribute {
      name: "value"
      t {
        data_type: 7
        raw_data: "\002\000\000\000\000\000\000\000"
      }
      type: TENSOR
    }
  }
  node {
    input: "980"
    input: "981"
    output: "982"
    name: "Gather_557"
    op_type: "Gather"
    attribute {
      name: "axis"
      i: 0
      type: INT
    }
  }
  node {
    output: "983"
    name: "Constant_558"
    op_type: "Constant"
    attribute {
      name: "value"
      t {
        data_type: 7
        raw_data: "\002\000\000\000\000\000\000\000"
      }
      type: TENSOR
    }
  }
  node {
    input: "982"
    input: "983"
    output: "984"
    name: "Div_559"
    op_type: "Div"
  }
  node {
    input: "984"
    output: "985"
    name: "Cast_560"
    op_type: "Cast"
    attribute {
      name: "to"
      i: 7
      type: INT
    }
  }
  node {
    input: "985"
    output: "986"
    name: "Cast_561"
    op_type: "Cast"
    attribute {
      name: "to"
      i: 7
      type: INT
    }
  }
  node {
    input: "982"
    output: "990"
    name: "Unsqueeze_562"
    op_type: "Unsqueeze"
    attribute {
      name: "axes"
      ints: 0
      type: INTS
    }
  }
  node {
    output: "992"
    name: "Constant_563"
    op_type: "Constant"
    attribute {
      name: "value"
      t {
        dims: 1
        data_type: 7
        raw_data: "\001\000\000\000\000\000\000\000"
      }
      type: TENSOR
    }
  }
  node {
    input: "module.transformer.decoder.layers.0.multihead_attn.in_proj_weight"
    input: "1615"
    input: "990"
    input: "1616"
    input: "992"
    output: "993"
    name: "Slice_564"
    op_type: "Slice"
  }
  node {
    input: "982"
    output: "997"
    name: "Unsqueeze_565"
    op_type: "Unsqueeze"
    attribute {
      name: "axes"
      ints: 0
      type: INTS
    }
  }
  node {
    output: "999"
    name: "Constant_566"
    op_type: "Constant"
    attribute {
      name: "value"
      t {
        dims: 1
        data_type: 7
        raw_data: "\001\000\000\000\000\000\000\000"
      }
      type: TENSOR
    }
  }
  node {
    input: "module.transformer.decoder.layers.0.multihead_attn.in_proj_bias"
    input: "1617"
    input: "997"
    input: "1618"
    input: "999"
    output: "1000"
    name: "Slice_567"
    op_type: "Slice"
  }
  node {
    input: "993"
    output: "1001"
    name: "Transpose_568"
    op_type: "Transpose"
    attribute {
      name: "perm"
      ints: 1
      ints: 0
      type: INTS
    }
  }
  node {
    input: "972"
    input: "1001"
    output: "1002"
    name: "MatMul_569"
    op_type: "MatMul"
  }
  node {
    input: "1002"
    input: "1000"
    output: "1003"
    name: "Add_570"
    op_type: "Add"
  }
  node {
    output: "1004"
    name: "Constant_571"
    op_type: "Constant"
    attribute {
      name: "value"
      t {
        data_type: 7
        raw_data: "\002\000\000\000\000\000\000\000"
      }
      type: TENSOR
    }
  }
  node {
    input: "982"
    input: "1004"
    output: "1005"
    name: "Mul_572"
    op_type: "Mul"
  }
  node {
    input: "982"
    output: "1007"
    name: "Unsqueeze_573"
    op_type: "Unsqueeze"
    attribute {
      name: "axes"
      ints: 0
      type: INTS
    }
  }
  node {
    input: "1005"
    output: "1008"
    name: "Unsqueeze_574"
    op_type: "Unsqueeze"
    attribute {
      name: "axes"
      ints: 0
      type: INTS
    }
  }
  node {
    output: "1010"
    name: "Constant_575"
    op_type: "Constant"
    attribute {
      name: "value"
      t {
        dims: 1
        data_type: 7
        raw_data: "\001\000\000\000\000\000\000\000"
      }
      type: TENSOR
    }
  }
  node {
    input: "module.transformer.decoder.layers.0.multihead_attn.in_proj_weight"
    input: "1007"
    input: "1008"
    input: "1619"
    input: "1010"
    output: "1011"
    name: "Slice_576"
    op_type: "Slice"
  }
  node {
    input: "982"
    output: "1013"
    name: "Unsqueeze_577"
    op_type: "Unsqueeze"
    attribute {
      name: "axes"
      ints: 0
      type: INTS
    }
  }
  node {
    input: "1005"
    output: "1014"
    name: "Unsqueeze_578"
    op_type: "Unsqueeze"
    attribute {
      name: "axes"
      ints: 0
      type: INTS
    }
  }
  node {
    output: "1016"
    name: "Constant_579"
    op_type: "Constant"
    attribute {
      name: "value"
      t {
        dims: 1
        data_type: 7
        raw_data: "\001\000\000\000\000\000\000\000"
      }
      type: TENSOR
    }
  }
  node {
    input: "module.transformer.decoder.layers.0.multihead_attn.in_proj_bias"
    input: "1013"
    input: "1014"
    input: "1620"
    input: "1016"
    output: "1017"
    name: "Slice_580"
    op_type: "Slice"
  }
  node {
    input: "1011"
    output: "1018"
    name: "Transpose_581"
    op_type: "Transpose"
    attribute {
      name: "perm"
      ints: 1
      ints: 0
      type: INTS
    }
  }
  node {
    input: "973"
    input: "1018"
    output: "1019"
    name: "MatMul_582"
    op_type: "MatMul"
  }
  node {
    input: "1019"
    input: "1017"
    output: "1020"
    name: "Add_583"
    op_type: "Add"
  }
  node {
    output: "1021"
    name: "Constant_584"
    op_type: "Constant"
    attribute {
      name: "value"
      t {
        data_type: 7
        raw_data: "\002\000\000\000\000\000\000\000"
      }
      type: TENSOR
    }
  }
  node {
    input: "982"
    input: "1021"
    output: "1022"
    name: "Mul_585"
    op_type: "Mul"
  }
  node {
    input: "1022"
    output: "1025"
    name: "Unsqueeze_586"
    op_type: "Unsqueeze"
    attribute {
      name: "axes"
      ints: 0
      type: INTS
    }
  }
  node {
    output: "1028"
    name: "Constant_587"
    op_type: "Constant"
    attribute {
      name: "value"
      t {
        dims: 1
        data_type: 7
        raw_data: "\001\000\000\000\000\000\000\000"
      }
      type: TENSOR
    }
  }
  node {
    input: "module.transformer.decoder.layers.0.multihead_attn.in_proj_weight"
    input: "1025"
    input: "1621"
    input: "1622"
    input: "1028"
    output: "1029"
    name: "Slice_588"
    op_type: "Slice"
  }
  node {
    input: "1022"
    output: "1032"
    name: "Unsqueeze_589"
    op_type: "Unsqueeze"
    attribute {
      name: "axes"
      ints: 0
      type: INTS
    }
  }
  node {
    output: "1035"
    name: "Constant_590"
    op_type: "Constant"
    attribute {
      name: "value"
      t {
        dims: 1
        data_type: 7
        raw_data: "\001\000\000\000\000\000\000\000"
      }
      type: TENSOR
    }
  }
  node {
    input: "module.transformer.decoder.layers.0.multihead_attn.in_proj_bias"
    input: "1032"
    input: "1623"
    input: "1624"
    input: "1035"
    output: "1036"
    name: "Slice_591"
    op_type: "Slice"
  }
  node {
    input: "1029"
    output: "1037"
    name: "Transpose_592"
    op_type: "Transpose"
    attribute {
      name: "perm"
      ints: 1
      ints: 0
      type: INTS
    }
  }
  node {
    input: "852"
    input: "1037"
    output: "1038"
    name: "MatMul_593"
    op_type: "MatMul"
  }
  node {
    input: "1038"
    input: "1036"
    output: "1039"
    name: "Add_594"
    op_type: "Add"
  }
  node {
    output: "1040"
    name: "Constant_595"
    op_type: "Constant"
    attribute {
      name: "value"
      t {
        data_type: 1
        raw_data: "\000\000\200>"
      }
      type: TENSOR
    }
  }
  node {
    input: "1003"
    input: "1040"
    output: "1041"
    name: "Mul_596"
    op_type: "Mul"
  }
  node {
    output: "1042"
    name: "Constant_597"
    op_type: "Constant"
    attribute {
      name: "value"
      t {
        data_type: 7
        raw_data: "\002\000\000\000\000\000\000\000"
      }
      type: TENSOR
    }
  }
  node {
    input: "979"
    input: "1042"
    output: "1043"
    name: "Mul_598"
    op_type: "Mul"
  }
  node {
    input: "976"
    output: "1044"
    name: "Unsqueeze_599"
    op_type: "Unsqueeze"
    attribute {
      name: "axes"
      ints: 0
      type: INTS
    }
  }
  node {
    input: "1043"
    output: "1045"
    name: "Unsqueeze_600"
    op_type: "Unsqueeze"
    attribute {
      name: "axes"
      ints: 0
      type: INTS
    }
  }
  node {
    input: "986"
    output: "1046"
    name: "Unsqueeze_601"
    op_type: "Unsqueeze"
    attribute {
      name: "axes"
      ints: 0
      type: INTS
    }
  }
  node {
    input: "1044"
    input: "1045"
    input: "1046"
    output: "1047"
    name: "Concat_602"
    op_type: "Concat"
    attribute {
      name: "axis"
      i: 0
      type: INT
    }
  }
  node {
    input: "1041"
    input: "1047"
    output: "1048"
    name: "Reshape_603"
    op_type: "Reshape"
  }
  node {
    input: "1048"
    output: "1049"
    name: "Transpose_604"
    op_type: "Transpose"
    attribute {
      name: "perm"
      ints: 1
      ints: 0
      ints: 2
      type: INTS
    }
  }
  node {
    output: "1050"
    name: "Constant_605"
    op_type: "Constant"
    attribute {
      name: "value"
      t {
        data_type: 7
        raw_data: "\002\000\000\000\000\000\000\000"
      }
      type: TENSOR
    }
  }
  node {
    input: "979"
    input: "1050"
    output: "1051"
    name: "Mul_606"
    op_type: "Mul"
  }
  node {
    input: "1051"
    output: "1054"
    name: "Unsqueeze_607"
    op_type: "Unsqueeze"
    attribute {
      name: "axes"
      ints: 0
      type: INTS
    }
  }
  node {
    input: "986"
    output: "1055"
    name: "Unsqueeze_608"
    op_type: "Unsqueeze"
    attribute {
      name: "axes"
      ints: 0
      type: INTS
    }
  }
  node {
    input: "1625"
    input: "1054"
    input: "1055"
    output: "1056"
    name: "Concat_609"
    op_type: "Concat"
    attribute {
      name: "axis"
      i: 0
      type: INT
    }
  }
  node {
    input: "1020"
    input: "1056"
    output: "1057"
    name: "Reshape_610"
    op_type: "Reshape"
  }
  node {
    input: "1057"
    output: "1058"
    name: "Transpose_611"
    op_type: "Transpose"
    attribute {
      name: "perm"
      ints: 1
      ints: 0
      ints: 2
      type: INTS
    }
  }
  node {
    output: "1059"
    name: "Constant_612"
    op_type: "Constant"
    attribute {
      name: "value"
      t {
        data_type: 7
        raw_data: "\002\000\000\000\000\000\000\000"
      }
      type: TENSOR
    }
  }
  node {
    input: "979"
    input: "1059"
    output: "1060"
    name: "Mul_613"
    op_type: "Mul"
  }
  node {
    input: "1060"
    output: "1063"
    name: "Unsqueeze_614"
    op_type: "Unsqueeze"
    attribute {
      name: "axes"
      ints: 0
      type: INTS
    }
  }
  node {
    input: "986"
    output: "1064"
    name: "Unsqueeze_615"
    op_type: "Unsqueeze"
    attribute {
      name: "axes"
      ints: 0
      type: INTS
    }
  }
  node {
    input: "1626"
    input: "1063"
    input: "1064"
    output: "1065"
    name: "Concat_616"
    op_type: "Concat"
    attribute {
      name: "axis"
      i: 0
      type: INT
    }
  }
  node {
    input: "1039"
    input: "1065"
    output: "1066"
    name: "Reshape_617"
    op_type: "Reshape"
  }
  node {
    input: "1066"
    output: "1067"
    name: "Transpose_618"
    op_type: "Transpose"
    attribute {
      name: "perm"
      ints: 1
      ints: 0
      ints: 2
      type: INTS
    }
  }
  node {
    input: "1058"
    output: "1068"
    name: "Shape_619"
    op_type: "Shape"
  }
  node {
    output: "1069"
    name: "Constant_620"
    op_type: "Constant"
    attribute {
      name: "value"
      t {
        data_type: 7
        raw_data: "\001\000\000\000\000\000\000\000"
      }
      type: TENSOR
    }
  }
  node {
    input: "1068"
    input: "1069"
    output: "1070"
    name: "Gather_621"
    op_type: "Gather"
    attribute {
      name: "axis"
      i: 0
      type: INT
    }
  }
  node {
    input: "1057"
    output: "1071"
    name: "Transpose_622"
    op_type: "Transpose"
    attribute {
      name: "perm"
      ints: 1
      ints: 2
      ints: 0
      type: INTS
    }
  }
  node {
    input: "1049"
    input: "1071"
    output: "1072"
    name: "MatMul_623"
    op_type: "MatMul"
  }
  node {
    input: "979"
    output: "1074"
    name: "Unsqueeze_624"
    op_type: "Unsqueeze"
    attribute {
      name: "axes"
      ints: 0
      type: INTS
    }
  }
  node {
    input: "976"
    output: "1076"
    name: "Unsqueeze_625"
    op_type: "Unsqueeze"
    attribute {
      name: "axes"
      ints: 0
      type: INTS
    }
  }
  node {
    input: "1070"
    output: "1077"
    name: "Unsqueeze_626"
    op_type: "Unsqueeze"
    attribute {
      name: "axes"
      ints: 0
      type: INTS
    }
  }
  node {
    input: "1074"
    input: "1627"
    input: "1076"
    input: "1077"
    output: "1078"
    name: "Concat_627"
    op_type: "Concat"
    attribute {
      name: "axis"
      i: 0
      type: INT
    }
  }
  node {
    input: "1072"
    input: "1078"
    output: "1079"
    name: "Reshape_628"
    op_type: "Reshape"
  }
  node {
    input: "517"
    output: "1080"
    name: "Unsqueeze_629"
    op_type: "Unsqueeze"
    attribute {
      name: "axes"
      ints: 1
      type: INTS
    }
  }
  node {
    input: "1080"
    output: "1081"
    name: "Unsqueeze_630"
    op_type: "Unsqueeze"
    attribute {
      name: "axes"
      ints: 2
      type: INTS
    }
  }
  node {
    input: "1081"
    output: "1082"
    name: "Cast_631"
    op_type: "Cast"
    attribute {
      name: "to"
      i: 9
      type: INT
    }
  }
  node {
    output: "1083"
    name: "Constant_632"
    op_type: "Constant"
    attribute {
      name: "value"
      t {
        data_type: 1
        raw_data: "\000\000\200\377"
      }
      type: TENSOR
    }
  }
  node {
    input: "1082"
    input: "1083"
    input: "1079"
    output: "1084"
    name: "Where_633"
    op_type: "Where"
  }
  node {
    output: "1085"
    name: "Constant_634"
    op_type: "Constant"
    attribute {
      name: "value"
      t {
        data_type: 7
        raw_data: "\002\000\000\000\000\000\000\000"
      }
      type: TENSOR
    }
  }
  node {
    input: "979"
    input: "1085"
    output: "1086"
    name: "Mul_635"
    op_type: "Mul"
  }
  node {
    input: "1086"
    output: "1087"
    name: "Unsqueeze_636"
    op_type: "Unsqueeze"
    attribute {
      name: "axes"
      ints: 0
      type: INTS
    }
  }
  node {
    input: "976"
    output: "1088"
    name: "Unsqueeze_637"
    op_type: "Unsqueeze"
    attribute {
      name: "axes"
      ints: 0
      type: INTS
    }
  }
  node {
    input: "1070"
    output: "1089"
    name: "Unsqueeze_638"
    op_type: "Unsqueeze"
    attribute {
      name: "axes"
      ints: 0
      type: INTS
    }
  }
  node {
    input: "1087"
    input: "1088"
    input: "1089"
    output: "1090"
    name: "Concat_639"
    op_type: "Concat"
    attribute {
      name: "axis"
      i: 0
      type: INT
    }
  }
  node {
    input: "1084"
    input: "1090"
    output: "1091"
    name: "Reshape_640"
    op_type: "Reshape"
  }
  node {
    input: "1091"
    output: "1092"
    name: "Softmax_641"
    op_type: "Softmax"
    attribute {
      name: "axis"
      i: 2
      type: INT
    }
  }
  node {
    input: "1092"
    input: "1067"
    output: "1093"
    name: "MatMul_642"
    op_type: "MatMul"
  }
  node {
    input: "1093"
    output: "1094"
    name: "Transpose_643"
    op_type: "Transpose"
    attribute {
      name: "perm"
      ints: 1
      ints: 0
      ints: 2
      type: INTS
    }
  }
  node {
    input: "976"
    output: "1095"
    name: "Unsqueeze_644"
    op_type: "Unsqueeze"
    attribute {
      name: "axes"
      ints: 0
      type: INTS
    }
  }
  node {
    input: "979"
    output: "1096"
    name: "Unsqueeze_645"
    op_type: "Unsqueeze"
    attribute {
      name: "axes"
      ints: 0
      type: INTS
    }
  }
  node {
    input: "982"
    output: "1097"
    name: "Unsqueeze_646"
    op_type: "Unsqueeze"
    attribute {
      name: "axes"
      ints: 0
      type: INTS
    }
  }
  node {
    input: "1095"
    input: "1096"
    input: "1097"
    output: "1098"
    name: "Concat_647"
    op_type: "Concat"
    attribute {
      name: "axis"
      i: 0
      type: INT
    }
  }
  node {
    input: "1094"
    input: "1098"
    output: "1099"
    name: "Reshape_648"
    op_type: "Reshape"
  }
  node {
    input: "1099"
    input: "1628"
    output: "1101"
    name: "MatMul_649"
    op_type: "MatMul"
  }
  node {
    input: "1101"
    input: "module.transformer.decoder.layers.0.multihead_attn.out_proj.bias"
    output: "1102"
    name: "Add_650"
    op_type: "Add"
  }
  node {
    input: "971"
    input: "1102"
    output: "1103"
    name: "Add_651"
    op_type: "Add"
  }
  node {
    input: "1103"
    output: "1104"
    name: "ReduceMean_652"
    op_type: "ReduceMean"
    attribute {
      name: "axes"
      ints: -1
      type: INTS
    }
  }
  node {
    input: "1103"
    input: "1104"
    output: "1105"
    name: "Sub_653"
    op_type: "Sub"
  }
  node {
    output: "1106"
    name: "Constant_654"
    op_type: "Constant"
    attribute {
      name: "value"
      t {
        data_type: 1
        raw_data: "\000\000\000@"
      }
      type: TENSOR
    }
  }
  node {
    input: "1105"
    input: "1106"
    output: "1107"
    name: "Pow_655"
    op_type: "Pow"
  }
  node {
    input: "1107"
    output: "1108"
    name: "ReduceMean_656"
    op_type: "ReduceMean"
    attribute {
      name: "axes"
      ints: -1
      type: INTS
    }
  }
  node {
    output: "1109"
    name: "Constant_657"
    op_type: "Constant"
    attribute {
      name: "value"
      t {
        data_type: 1
        raw_data: "\254\305\'7"
      }
      type: TENSOR
    }
  }
  node {
    input: "1108"
    input: "1109"
    output: "1110"
    name: "Add_658"
    op_type: "Add"
  }
  node {
    input: "1110"
    output: "1111"
    name: "Sqrt_659"
    op_type: "Sqrt"
  }
  node {
    input: "1105"
    input: "1111"
    output: "1112"
    name: "Div_660"
    op_type: "Div"
  }
  node {
    input: "1112"
    input: "module.transformer.decoder.layers.0.norm2.weight"
    output: "1113"
    name: "Mul_661"
    op_type: "Mul"
  }
  node {
    input: "1113"
    input: "module.transformer.decoder.layers.0.norm2.bias"
    output: "1114"
    name: "Add_662"
    op_type: "Add"
  }
  node {
    input: "1114"
    input: "1629"
    output: "1116"
    name: "MatMul_663"
    op_type: "MatMul"
  }
  node {
    input: "1116"
    input: "module.transformer.decoder.layers.0.linear1.bias"
    output: "1117"
    name: "Add_664"
    op_type: "Add"
  }
  node {
    input: "1117"
    output: "1118"
    name: "Relu_665"
    op_type: "Relu"
  }
  node {
    input: "1118"
    input: "1630"
    output: "1120"
    name: "MatMul_666"
    op_type: "MatMul"
  }
  node {
    input: "1120"
    input: "module.transformer.decoder.layers.0.linear2.bias"
    output: "1121"
    name: "Add_667"
    op_type: "Add"
  }
  node {
    input: "1114"
    input: "1121"
    output: "1122"
    name: "Add_668"
    op_type: "Add"
  }
  node {
    input: "1122"
    output: "1123"
    name: "ReduceMean_669"
    op_type: "ReduceMean"
    attribute {
      name: "axes"
      ints: -1
      type: INTS
    }
  }
  node {
    input: "1122"
    input: "1123"
    output: "1124"
    name: "Sub_670"
    op_type: "Sub"
  }
  node {
    output: "1125"
    name: "Constant_671"
    op_type: "Constant"
    attribute {
      name: "value"
      t {
        data_type: 1
        raw_data: "\000\000\000@"
      }
      type: TENSOR
    }
  }
  node {
    input: "1124"
    input: "1125"
    output: "1126"
    name: "Pow_672"
    op_type: "Pow"
  }
  node {
    input: "1126"
    output: "1127"
    name: "ReduceMean_673"
    op_type: "ReduceMean"
    attribute {
      name: "axes"
      ints: -1
      type: INTS
    }
  }
  node {
    output: "1128"
    name: "Constant_674"
    op_type: "Constant"
    attribute {
      name: "value"
      t {
        data_type: 1
        raw_data: "\254\305\'7"
      }
      type: TENSOR
    }
  }
  node {
    input: "1127"
    input: "1128"
    output: "1129"
    name: "Add_675"
    op_type: "Add"
  }
  node {
    input: "1129"
    output: "1130"
    name: "Sqrt_676"
    op_type: "Sqrt"
  }
  node {
    input: "1124"
    input: "1130"
    output: "1131"
    name: "Div_677"
    op_type: "Div"
  }
  node {
    input: "1131"
    input: "module.transformer.decoder.layers.0.norm3.weight"
    output: "1132"
    name: "Mul_678"
    op_type: "Mul"
  }
  node {
    input: "1132"
    input: "module.transformer.decoder.layers.0.norm3.bias"
    output: "1133"
    name: "Add_679"
    op_type: "Add"
  }
  node {
    input: "1133"
    output: "1134"
    name: "ReduceMean_680"
    op_type: "ReduceMean"
    attribute {
      name: "axes"
      ints: -1
      type: INTS
    }
  }
  node {
    input: "1133"
    input: "1134"
    output: "1135"
    name: "Sub_681"
    op_type: "Sub"
  }
  node {
    output: "1136"
    name: "Constant_682"
    op_type: "Constant"
    attribute {
      name: "value"
      t {
        data_type: 1
        raw_data: "\000\000\000@"
      }
      type: TENSOR
    }
  }
  node {
    input: "1135"
    input: "1136"
    output: "1137"
    name: "Pow_683"
    op_type: "Pow"
  }
  node {
    input: "1137"
    output: "1138"
    name: "ReduceMean_684"
    op_type: "ReduceMean"
    attribute {
      name: "axes"
      ints: -1
      type: INTS
    }
  }
  node {
    output: "1139"
    name: "Constant_685"
    op_type: "Constant"
    attribute {
      name: "value"
      t {
        data_type: 1
        raw_data: "\254\305\'7"
      }
      type: TENSOR
    }
  }
  node {
    input: "1138"
    input: "1139"
    output: "1140"
    name: "Add_686"
    op_type: "Add"
  }
  node {
    input: "1140"
    output: "1141"
    name: "Sqrt_687"
    op_type: "Sqrt"
  }
  node {
    input: "1135"
    input: "1141"
    output: "1142"
    name: "Div_688"
    op_type: "Div"
  }
  node {
    input: "1142"
    input: "module.transformer.decoder.norm.weight"
    output: "1143"
    name: "Mul_689"
    op_type: "Mul"
  }
  node {
    input: "1143"
    input: "module.transformer.decoder.norm.bias"
    output: "1144"
    name: "Add_690"
    op_type: "Add"
  }
  node {
    input: "1133"
    input: "516"
    output: "1145"
    name: "Add_691"
    op_type: "Add"
  }
  node {
    input: "1145"
    output: "1146"
    name: "Shape_692"
    op_type: "Shape"
  }
  node {
    output: "1147"
    name: "Constant_693"
    op_type: "Constant"
    attribute {
      name: "value"
      t {
        data_type: 7
        raw_data: "\000\000\000\000\000\000\000\000"
      }
      type: TENSOR
    }
  }
  node {
    input: "1146"
    input: "1147"
    output: "1148"
    name: "Gather_694"
    op_type: "Gather"
    attribute {
      name: "axis"
      i: 0
      type: INT
    }
  }
  node {
    input: "1145"
    output: "1149"
    name: "Shape_695"
    op_type: "Shape"
  }
  node {
    output: "1150"
    name: "Constant_696"
    op_type: "Constant"
    attribute {
      name: "value"
      t {
        data_type: 7
        raw_data: "\001\000\000\000\000\000\000\000"
      }
      type: TENSOR
    }
  }
  node {
    input: "1149"
    input: "1150"
    output: "1151"
    name: "Gather_697"
    op_type: "Gather"
    attribute {
      name: "axis"
      i: 0
      type: INT
    }
  }
  node {
    input: "1145"
    output: "1152"
    name: "Shape_698"
    op_type: "Shape"
  }
  node {
    output: "1153"
    name: "Constant_699"
    op_type: "Constant"
    attribute {
      name: "value"
      t {
        data_type: 7
        raw_data: "\002\000\000\000\000\000\000\000"
      }
      type: TENSOR
    }
  }
  node {
    input: "1152"
    input: "1153"
    output: "1154"
    name: "Gather_700"
    op_type: "Gather"
    attribute {
      name: "axis"
      i: 0
      type: INT
    }
  }
  node {
    output: "1155"
    name: "Constant_701"
    op_type: "Constant"
    attribute {
      name: "value"
      t {
        data_type: 7
        raw_data: "\002\000\000\000\000\000\000\000"
      }
      type: TENSOR
    }
  }
  node {
    input: "1154"
    input: "1155"
    output: "1156"
    name: "Div_702"
    op_type: "Div"
  }
  node {
    input: "1156"
    output: "1157"
    name: "Cast_703"
    op_type: "Cast"
    attribute {
      name: "to"
      i: 7
      type: INT
    }
  }
  node {
    input: "1157"
    output: "1158"
    name: "Cast_704"
    op_type: "Cast"
    attribute {
      name: "to"
      i: 7
      type: INT
    }
  }
  node {
    input: "1154"
    output: "1162"
    name: "Unsqueeze_705"
    op_type: "Unsqueeze"
    attribute {
      name: "axes"
      ints: 0
      type: INTS
    }
  }
  node {
    output: "1164"
    name: "Constant_706"
    op_type: "Constant"
    attribute {
      name: "value"
      t {
        dims: 1
        data_type: 7
        raw_data: "\001\000\000\000\000\000\000\000"
      }
      type: TENSOR
    }
  }
  node {
    input: "module.transformer.decoder.layers.1.self_attn.in_proj_weight"
    input: "1631"
    input: "1162"
    input: "1632"
    input: "1164"
    output: "1165"
    name: "Slice_707"
    op_type: "Slice"
  }
  node {
    input: "1154"
    output: "1169"
    name: "Unsqueeze_708"
    op_type: "Unsqueeze"
    attribute {
      name: "axes"
      ints: 0
      type: INTS
    }
  }
  node {
    output: "1171"
    name: "Constant_709"
    op_type: "Constant"
    attribute {
      name: "value"
      t {
        dims: 1
        data_type: 7
        raw_data: "\001\000\000\000\000\000\000\000"
      }
      type: TENSOR
    }
  }
  node {
    input: "module.transformer.decoder.layers.1.self_attn.in_proj_bias"
    input: "1633"
    input: "1169"
    input: "1634"
    input: "1171"
    output: "1172"
    name: "Slice_710"
    op_type: "Slice"
  }
  node {
    input: "1165"
    output: "1173"
    name: "Transpose_711"
    op_type: "Transpose"
    attribute {
      name: "perm"
      ints: 1
      ints: 0
      type: INTS
    }
  }
  node {
    input: "1145"
    input: "1173"
    output: "1174"
    name: "MatMul_712"
    op_type: "MatMul"
  }
  node {
    input: "1174"
    input: "1172"
    output: "1175"
    name: "Add_713"
    op_type: "Add"
  }
  node {
    output: "1176"
    name: "Constant_714"
    op_type: "Constant"
    attribute {
      name: "value"
      t {
        data_type: 7
        raw_data: "\002\000\000\000\000\000\000\000"
      }
      type: TENSOR
    }
  }
  node {
    input: "1154"
    input: "1176"
    output: "1177"
    name: "Mul_715"
    op_type: "Mul"
  }
  node {
    input: "1154"
    output: "1179"
    name: "Unsqueeze_716"
    op_type: "Unsqueeze"
    attribute {
      name: "axes"
      ints: 0
      type: INTS
    }
  }
  node {
    input: "1177"
    output: "1180"
    name: "Unsqueeze_717"
    op_type: "Unsqueeze"
    attribute {
      name: "axes"
      ints: 0
      type: INTS
    }
  }
  node {
    output: "1182"
    name: "Constant_718"
    op_type: "Constant"
    attribute {
      name: "value"
      t {
        dims: 1
        data_type: 7
        raw_data: "\001\000\000\000\000\000\000\000"
      }
      type: TENSOR
    }
  }
  node {
    input: "module.transformer.decoder.layers.1.self_attn.in_proj_weight"
    input: "1179"
    input: "1180"
    input: "1635"
    input: "1182"
    output: "1183"
    name: "Slice_719"
    op_type: "Slice"
  }
  node {
    input: "1154"
    output: "1185"
    name: "Unsqueeze_720"
    op_type: "Unsqueeze"
    attribute {
      name: "axes"
      ints: 0
      type: INTS
    }
  }
  node {
    input: "1177"
    output: "1186"
    name: "Unsqueeze_721"
    op_type: "Unsqueeze"
    attribute {
      name: "axes"
      ints: 0
      type: INTS
    }
  }
  node {
    output: "1188"
    name: "Constant_722"
    op_type: "Constant"
    attribute {
      name: "value"
      t {
        dims: 1
        data_type: 7
        raw_data: "\001\000\000\000\000\000\000\000"
      }
      type: TENSOR
    }
  }
  node {
    input: "module.transformer.decoder.layers.1.self_attn.in_proj_bias"
    input: "1185"
    input: "1186"
    input: "1636"
    input: "1188"
    output: "1189"
    name: "Slice_723"
    op_type: "Slice"
  }
  node {
    input: "1183"
    output: "1190"
    name: "Transpose_724"
    op_type: "Transpose"
    attribute {
      name: "perm"
      ints: 1
      ints: 0
      type: INTS
    }
  }
  node {
    input: "1145"
    input: "1190"
    output: "1191"
    name: "MatMul_725"
    op_type: "MatMul"
  }
  node {
    input: "1191"
    input: "1189"
    output: "1192"
    name: "Add_726"
    op_type: "Add"
  }
  node {
    output: "1193"
    name: "Constant_727"
    op_type: "Constant"
    attribute {
      name: "value"
      t {
        data_type: 7
        raw_data: "\002\000\000\000\000\000\000\000"
      }
      type: TENSOR
    }
  }
  node {
    input: "1154"
    input: "1193"
    output: "1194"
    name: "Mul_728"
    op_type: "Mul"
  }
  node {
    input: "1194"
    output: "1197"
    name: "Unsqueeze_729"
    op_type: "Unsqueeze"
    attribute {
      name: "axes"
      ints: 0
      type: INTS
    }
  }
  node {
    output: "1200"
    name: "Constant_730"
    op_type: "Constant"
    attribute {
      name: "value"
      t {
        dims: 1
        data_type: 7
        raw_data: "\001\000\000\000\000\000\000\000"
      }
      type: TENSOR
    }
  }
  node {
    input: "module.transformer.decoder.layers.1.self_attn.in_proj_weight"
    input: "1197"
    input: "1637"
    input: "1638"
    input: "1200"
    output: "1201"
    name: "Slice_731"
    op_type: "Slice"
  }
  node {
    input: "1194"
    output: "1204"
    name: "Unsqueeze_732"
    op_type: "Unsqueeze"
    attribute {
      name: "axes"
      ints: 0
      type: INTS
    }
  }
  node {
    output: "1207"
    name: "Constant_733"
    op_type: "Constant"
    attribute {
      name: "value"
      t {
        dims: 1
        data_type: 7
        raw_data: "\001\000\000\000\000\000\000\000"
      }
      type: TENSOR
    }
  }
  node {
    input: "module.transformer.decoder.layers.1.self_attn.in_proj_bias"
    input: "1204"
    input: "1639"
    input: "1640"
    input: "1207"
    output: "1208"
    name: "Slice_734"
    op_type: "Slice"
  }
  node {
    input: "1201"
    output: "1209"
    name: "Transpose_735"
    op_type: "Transpose"
    attribute {
      name: "perm"
      ints: 1
      ints: 0
      type: INTS
    }
  }
  node {
    input: "1133"
    input: "1209"
    output: "1210"
    name: "MatMul_736"
    op_type: "MatMul"
  }
  node {
    input: "1210"
    input: "1208"
    output: "1211"
    name: "Add_737"
    op_type: "Add"
  }
  node {
    output: "1212"
    name: "Constant_738"
    op_type: "Constant"
    attribute {
      name: "value"
      t {
        data_type: 1
        raw_data: "\000\000\200>"
      }
      type: TENSOR
    }
  }
  node {
    input: "1175"
    input: "1212"
    output: "1213"
    name: "Mul_739"
    op_type: "Mul"
  }
  node {
    output: "1214"
    name: "Constant_740"
    op_type: "Constant"
    attribute {
      name: "value"
      t {
        data_type: 7
        raw_data: "\002\000\000\000\000\000\000\000"
      }
      type: TENSOR
    }
  }
  node {
    input: "1151"
    input: "1214"
    output: "1215"
    name: "Mul_741"
    op_type: "Mul"
  }
  node {
    input: "1148"
    output: "1216"
    name: "Unsqueeze_742"
    op_type: "Unsqueeze"
    attribute {
      name: "axes"
      ints: 0
      type: INTS
    }
  }
  node {
    input: "1215"
    output: "1217"
    name: "Unsqueeze_743"
    op_type: "Unsqueeze"
    attribute {
      name: "axes"
      ints: 0
      type: INTS
    }
  }
  node {
    input: "1158"
    output: "1218"
    name: "Unsqueeze_744"
    op_type: "Unsqueeze"
    attribute {
      name: "axes"
      ints: 0
      type: INTS
    }
  }
  node {
    input: "1216"
    input: "1217"
    input: "1218"
    output: "1219"
    name: "Concat_745"
    op_type: "Concat"
    attribute {
      name: "axis"
      i: 0
      type: INT
    }
  }
  node {
    input: "1213"
    input: "1219"
    output: "1220"
    name: "Reshape_746"
    op_type: "Reshape"
  }
  node {
    input: "1220"
    output: "1221"
    name: "Transpose_747"
    op_type: "Transpose"
    attribute {
      name: "perm"
      ints: 1
      ints: 0
      ints: 2
      type: INTS
    }
  }
  node {
    output: "1222"
    name: "Constant_748"
    op_type: "Constant"
    attribute {
      name: "value"
      t {
        data_type: 7
        raw_data: "\002\000\000\000\000\000\000\000"
      }
      type: TENSOR
    }
  }
  node {
    input: "1151"
    input: "1222"
    output: "1223"
    name: "Mul_749"
    op_type: "Mul"
  }
  node {
    input: "1223"
    output: "1226"
    name: "Unsqueeze_750"
    op_type: "Unsqueeze"
    attribute {
      name: "axes"
      ints: 0
      type: INTS
    }
  }
  node {
    input: "1158"
    output: "1227"
    name: "Unsqueeze_751"
    op_type: "Unsqueeze"
    attribute {
      name: "axes"
      ints: 0
      type: INTS
    }
  }
  node {
    input: "1641"
    input: "1226"
    input: "1227"
    output: "1228"
    name: "Concat_752"
    op_type: "Concat"
    attribute {
      name: "axis"
      i: 0
      type: INT
    }
  }
  node {
    input: "1192"
    input: "1228"
    output: "1229"
    name: "Reshape_753"
    op_type: "Reshape"
  }
  node {
    output: "1230"
    name: "Constant_754"
    op_type: "Constant"
    attribute {
      name: "value"
      t {
        data_type: 7
        raw_data: "\002\000\000\000\000\000\000\000"
      }
      type: TENSOR
    }
  }
  node {
    input: "1151"
    input: "1230"
    output: "1231"
    name: "Mul_755"
    op_type: "Mul"
  }
  node {
    input: "1231"
    output: "1234"
    name: "Unsqueeze_756"
    op_type: "Unsqueeze"
    attribute {
      name: "axes"
      ints: 0
      type: INTS
    }
  }
  node {
    input: "1158"
    output: "1235"
    name: "Unsqueeze_757"
    op_type: "Unsqueeze"
    attribute {
      name: "axes"
      ints: 0
      type: INTS
    }
  }
  node {
    input: "1642"
    input: "1234"
    input: "1235"
    output: "1236"
    name: "Concat_758"
    op_type: "Concat"
    attribute {
      name: "axis"
      i: 0
      type: INT
    }
  }
  node {
    input: "1211"
    input: "1236"
    output: "1237"
    name: "Reshape_759"
    op_type: "Reshape"
  }
  node {
    input: "1237"
    output: "1238"
    name: "Transpose_760"
    op_type: "Transpose"
    attribute {
      name: "perm"
      ints: 1
      ints: 0
      ints: 2
      type: INTS
    }
  }
  node {
    input: "1229"
    output: "1239"
    name: "Transpose_761"
    op_type: "Transpose"
    attribute {
      name: "perm"
      ints: 1
      ints: 2
      ints: 0
      type: INTS
    }
  }
  node {
    input: "1221"
    input: "1239"
    output: "1240"
    name: "MatMul_762"
    op_type: "MatMul"
  }
  node {
    input: "1240"
    output: "1241"
    name: "Softmax_763"
    op_type: "Softmax"
    attribute {
      name: "axis"
      i: 2
      type: INT
    }
  }
  node {
    input: "1241"
    input: "1238"
    output: "1242"
    name: "MatMul_764"
    op_type: "MatMul"
  }
  node {
    input: "1242"
    output: "1243"
    name: "Transpose_765"
    op_type: "Transpose"
    attribute {
      name: "perm"
      ints: 1
      ints: 0
      ints: 2
      type: INTS
    }
  }
  node {
    input: "1148"
    output: "1244"
    name: "Unsqueeze_766"
    op_type: "Unsqueeze"
    attribute {
      name: "axes"
      ints: 0
      type: INTS
    }
  }
  node {
    input: "1151"
    output: "1245"
    name: "Unsqueeze_767"
    op_type: "Unsqueeze"
    attribute {
      name: "axes"
      ints: 0
      type: INTS
    }
  }
  node {
    input: "1154"
    output: "1246"
    name: "Unsqueeze_768"
    op_type: "Unsqueeze"
    attribute {
      name: "axes"
      ints: 0
      type: INTS
    }
  }
  node {
    input: "1244"
    input: "1245"
    input: "1246"
    output: "1247"
    name: "Concat_769"
    op_type: "Concat"
    attribute {
      name: "axis"
      i: 0
      type: INT
    }
  }
  node {
    input: "1243"
    input: "1247"
    output: "1248"
    name: "Reshape_770"
    op_type: "Reshape"
  }
  node {
    input: "1248"
    input: "1643"
    output: "1250"
    name: "MatMul_771"
    op_type: "MatMul"
  }
  node {
    input: "1250"
    input: "module.transformer.decoder.layers.1.self_attn.out_proj.bias"
    output: "1251"
    name: "Add_772"
    op_type: "Add"
  }
  node {
    input: "1133"
    input: "1251"
    output: "1252"
    name: "Add_773"
    op_type: "Add"
  }
  node {
    input: "1252"
    output: "1253"
    name: "ReduceMean_774"
    op_type: "ReduceMean"
    attribute {
      name: "axes"
      ints: -1
      type: INTS
    }
  }
  node {
    input: "1252"
    input: "1253"
    output: "1254"
    name: "Sub_775"
    op_type: "Sub"
  }
  node {
    output: "1255"
    name: "Constant_776"
    op_type: "Constant"
    attribute {
      name: "value"
      t {
        data_type: 1
        raw_data: "\000\000\000@"
      }
      type: TENSOR
    }
  }
  node {
    input: "1254"
    input: "1255"
    output: "1256"
    name: "Pow_777"
    op_type: "Pow"
  }
  node {
    input: "1256"
    output: "1257"
    name: "ReduceMean_778"
    op_type: "ReduceMean"
    attribute {
      name: "axes"
      ints: -1
      type: INTS
    }
  }
  node {
    output: "1258"
    name: "Constant_779"
    op_type: "Constant"
    attribute {
      name: "value"
      t {
        data_type: 1
        raw_data: "\254\305\'7"
      }
      type: TENSOR
    }
  }
  node {
    input: "1257"
    input: "1258"
    output: "1259"
    name: "Add_780"
    op_type: "Add"
  }
  node {
    input: "1259"
    output: "1260"
    name: "Sqrt_781"
    op_type: "Sqrt"
  }
  node {
    input: "1254"
    input: "1260"
    output: "1261"
    name: "Div_782"
    op_type: "Div"
  }
  node {
    input: "1261"
    input: "module.transformer.decoder.layers.1.norm1.weight"
    output: "1262"
    name: "Mul_783"
    op_type: "Mul"
  }
  node {
    input: "1262"
    input: "module.transformer.decoder.layers.1.norm1.bias"
    output: "1263"
    name: "Add_784"
    op_type: "Add"
  }
  node {
    input: "1263"
    input: "516"
    output: "1264"
    name: "Add_785"
    op_type: "Add"
  }
  node {
    input: "852"
    input: "501"
    output: "1265"
    name: "Add_786"
    op_type: "Add"
  }
  node {
    input: "1264"
    output: "1266"
    name: "Shape_787"
    op_type: "Shape"
  }
  node {
    output: "1267"
    name: "Constant_788"
    op_type: "Constant"
    attribute {
      name: "value"
      t {
        data_type: 7
        raw_data: "\000\000\000\000\000\000\000\000"
      }
      type: TENSOR
    }
  }
  node {
    input: "1266"
    input: "1267"
    output: "1268"
    name: "Gather_789"
    op_type: "Gather"
    attribute {
      name: "axis"
      i: 0
      type: INT
    }
  }
  node {
    input: "1264"
    output: "1269"
    name: "Shape_790"
    op_type: "Shape"
  }
  node {
    output: "1270"
    name: "Constant_791"
    op_type: "Constant"
    attribute {
      name: "value"
      t {
        data_type: 7
        raw_data: "\001\000\000\000\000\000\000\000"
      }
      type: TENSOR
    }
  }
  node {
    input: "1269"
    input: "1270"
    output: "1271"
    name: "Gather_792"
    op_type: "Gather"
    attribute {
      name: "axis"
      i: 0
      type: INT
    }
  }
  node {
    input: "1264"
    output: "1272"
    name: "Shape_793"
    op_type: "Shape"
  }
  node {
    output: "1273"
    name: "Constant_794"
    op_type: "Constant"
    attribute {
      name: "value"
      t {
        data_type: 7
        raw_data: "\002\000\000\000\000\000\000\000"
      }
      type: TENSOR
    }
  }
  node {
    input: "1272"
    input: "1273"
    output: "1274"
    name: "Gather_795"
    op_type: "Gather"
    attribute {
      name: "axis"
      i: 0
      type: INT
    }
  }
  node {
    output: "1275"
    name: "Constant_796"
    op_type: "Constant"
    attribute {
      name: "value"
      t {
        data_type: 7
        raw_data: "\002\000\000\000\000\000\000\000"
      }
      type: TENSOR
    }
  }
  node {
    input: "1274"
    input: "1275"
    output: "1276"
    name: "Div_797"
    op_type: "Div"
  }
  node {
    input: "1276"
    output: "1277"
    name: "Cast_798"
    op_type: "Cast"
    attribute {
      name: "to"
      i: 7
      type: INT
    }
  }
  node {
    input: "1277"
    output: "1278"
    name: "Cast_799"
    op_type: "Cast"
    attribute {
      name: "to"
      i: 7
      type: INT
    }
  }
  node {
    input: "1274"
    output: "1282"
    name: "Unsqueeze_800"
    op_type: "Unsqueeze"
    attribute {
      name: "axes"
      ints: 0
      type: INTS
    }
  }
  node {
    output: "1284"
    name: "Constant_801"
    op_type: "Constant"
    attribute {
      name: "value"
      t {
        dims: 1
        data_type: 7
        raw_data: "\001\000\000\000\000\000\000\000"
      }
      type: TENSOR
    }
  }
  node {
    input: "module.transformer.decoder.layers.1.multihead_attn.in_proj_weight"
    input: "1644"
    input: "1282"
    input: "1645"
    input: "1284"
    output: "1285"
    name: "Slice_802"
    op_type: "Slice"
  }
  node {
    input: "1274"
    output: "1289"
    name: "Unsqueeze_803"
    op_type: "Unsqueeze"
    attribute {
      name: "axes"
      ints: 0
      type: INTS
    }
  }
  node {
    output: "1291"
    name: "Constant_804"
    op_type: "Constant"
    attribute {
      name: "value"
      t {
        dims: 1
        data_type: 7
        raw_data: "\001\000\000\000\000\000\000\000"
      }
      type: TENSOR
    }
  }
  node {
    input: "module.transformer.decoder.layers.1.multihead_attn.in_proj_bias"
    input: "1646"
    input: "1289"
    input: "1647"
    input: "1291"
    output: "1292"
    name: "Slice_805"
    op_type: "Slice"
  }
  node {
    input: "1285"
    output: "1293"
    name: "Transpose_806"
    op_type: "Transpose"
    attribute {
      name: "perm"
      ints: 1
      ints: 0
      type: INTS
    }
  }
  node {
    input: "1264"
    input: "1293"
    output: "1294"
    name: "MatMul_807"
    op_type: "MatMul"
  }
  node {
    input: "1294"
    input: "1292"
    output: "1295"
    name: "Add_808"
    op_type: "Add"
  }
  node {
    output: "1296"
    name: "Constant_809"
    op_type: "Constant"
    attribute {
      name: "value"
      t {
        data_type: 7
        raw_data: "\002\000\000\000\000\000\000\000"
      }
      type: TENSOR
    }
  }
  node {
    input: "1274"
    input: "1296"
    output: "1297"
    name: "Mul_810"
    op_type: "Mul"
  }
  node {
    input: "1274"
    output: "1299"
    name: "Unsqueeze_811"
    op_type: "Unsqueeze"
    attribute {
      name: "axes"
      ints: 0
      type: INTS
    }
  }
  node {
    input: "1297"
    output: "1300"
    name: "Unsqueeze_812"
    op_type: "Unsqueeze"
    attribute {
      name: "axes"
      ints: 0
      type: INTS
    }
  }
  node {
    output: "1302"
    name: "Constant_813"
    op_type: "Constant"
    attribute {
      name: "value"
      t {
        dims: 1
        data_type: 7
        raw_data: "\001\000\000\000\000\000\000\000"
      }
      type: TENSOR
    }
  }
  node {
    input: "module.transformer.decoder.layers.1.multihead_attn.in_proj_weight"
    input: "1299"
    input: "1300"
    input: "1648"
    input: "1302"
    output: "1303"
    name: "Slice_814"
    op_type: "Slice"
  }
  node {
    input: "1274"
    output: "1305"
    name: "Unsqueeze_815"
    op_type: "Unsqueeze"
    attribute {
      name: "axes"
      ints: 0
      type: INTS
    }
  }
  node {
    input: "1297"
    output: "1306"
    name: "Unsqueeze_816"
    op_type: "Unsqueeze"
    attribute {
      name: "axes"
      ints: 0
      type: INTS
    }
  }
  node {
    output: "1308"
    name: "Constant_817"
    op_type: "Constant"
    attribute {
      name: "value"
      t {
        dims: 1
        data_type: 7
        raw_data: "\001\000\000\000\000\000\000\000"
      }
      type: TENSOR
    }
  }
  node {
    input: "module.transformer.decoder.layers.1.multihead_attn.in_proj_bias"
    input: "1305"
    input: "1306"
    input: "1649"
    input: "1308"
    output: "1309"
    name: "Slice_818"
    op_type: "Slice"
  }
  node {
    input: "1303"
    output: "1310"
    name: "Transpose_819"
    op_type: "Transpose"
    attribute {
      name: "perm"
      ints: 1
      ints: 0
      type: INTS
    }
  }
  node {
    input: "1265"
    input: "1310"
    output: "1311"
    name: "MatMul_820"
    op_type: "MatMul"
  }
  node {
    input: "1311"
    input: "1309"
    output: "1312"
    name: "Add_821"
    op_type: "Add"
  }
  node {
    output: "1313"
    name: "Constant_822"
    op_type: "Constant"
    attribute {
      name: "value"
      t {
        data_type: 7
        raw_data: "\002\000\000\000\000\000\000\000"
      }
      type: TENSOR
    }
  }
  node {
    input: "1274"
    input: "1313"
    output: "1314"
    name: "Mul_823"
    op_type: "Mul"
  }
  node {
    input: "1314"
    output: "1317"
    name: "Unsqueeze_824"
    op_type: "Unsqueeze"
    attribute {
      name: "axes"
      ints: 0
      type: INTS
    }
  }
  node {
    output: "1320"
    name: "Constant_825"
    op_type: "Constant"
    attribute {
      name: "value"
      t {
        dims: 1
        data_type: 7
        raw_data: "\001\000\000\000\000\000\000\000"
      }
      type: TENSOR
    }
  }
  node {
    input: "module.transformer.decoder.layers.1.multihead_attn.in_proj_weight"
    input: "1317"
    input: "1650"
    input: "1651"
    input: "1320"
    output: "1321"
    name: "Slice_826"
    op_type: "Slice"
  }
  node {
    input: "1314"
    output: "1324"
    name: "Unsqueeze_827"
    op_type: "Unsqueeze"
    attribute {
      name: "axes"
      ints: 0
      type: INTS
    }
  }
  node {
    output: "1327"
    name: "Constant_828"
    op_type: "Constant"
    attribute {
      name: "value"
      t {
        dims: 1
        data_type: 7
        raw_data: "\001\000\000\000\000\000\000\000"
      }
      type: TENSOR
    }
  }
  node {
    input: "module.transformer.decoder.layers.1.multihead_attn.in_proj_bias"
    input: "1324"
    input: "1652"
    input: "1653"
    input: "1327"
    output: "1328"
    name: "Slice_829"
    op_type: "Slice"
  }
  node {
    input: "1321"
    output: "1329"
    name: "Transpose_830"
    op_type: "Transpose"
    attribute {
      name: "perm"
      ints: 1
      ints: 0
      type: INTS
    }
  }
  node {
    input: "852"
    input: "1329"
    output: "1330"
    name: "MatMul_831"
    op_type: "MatMul"
  }
  node {
    input: "1330"
    input: "1328"
    output: "1331"
    name: "Add_832"
    op_type: "Add"
  }
  node {
    output: "1332"
    name: "Constant_833"
    op_type: "Constant"
    attribute {
      name: "value"
      t {
        data_type: 1
        raw_data: "\000\000\200>"
      }
      type: TENSOR
    }
  }
  node {
    input: "1295"
    input: "1332"
    output: "1333"
    name: "Mul_834"
    op_type: "Mul"
  }
  node {
    output: "1334"
    name: "Constant_835"
    op_type: "Constant"
    attribute {
      name: "value"
      t {
        data_type: 7
        raw_data: "\002\000\000\000\000\000\000\000"
      }
      type: TENSOR
    }
  }
  node {
    input: "1271"
    input: "1334"
    output: "1335"
    name: "Mul_836"
    op_type: "Mul"
  }
  node {
    input: "1268"
    output: "1336"
    name: "Unsqueeze_837"
    op_type: "Unsqueeze"
    attribute {
      name: "axes"
      ints: 0
      type: INTS
    }
  }
  node {
    input: "1335"
    output: "1337"
    name: "Unsqueeze_838"
    op_type: "Unsqueeze"
    attribute {
      name: "axes"
      ints: 0
      type: INTS
    }
  }
  node {
    input: "1278"
    output: "1338"
    name: "Unsqueeze_839"
    op_type: "Unsqueeze"
    attribute {
      name: "axes"
      ints: 0
      type: INTS
    }
  }
  node {
    input: "1336"
    input: "1337"
    input: "1338"
    output: "1339"
    name: "Concat_840"
    op_type: "Concat"
    attribute {
      name: "axis"
      i: 0
      type: INT
    }
  }
  node {
    input: "1333"
    input: "1339"
    output: "1340"
    name: "Reshape_841"
    op_type: "Reshape"
  }
  node {
    input: "1340"
    output: "1341"
    name: "Transpose_842"
    op_type: "Transpose"
    attribute {
      name: "perm"
      ints: 1
      ints: 0
      ints: 2
      type: INTS
    }
  }
  node {
    output: "1342"
    name: "Constant_843"
    op_type: "Constant"
    attribute {
      name: "value"
      t {
        data_type: 7
        raw_data: "\002\000\000\000\000\000\000\000"
      }
      type: TENSOR
    }
  }
  node {
    input: "1271"
    input: "1342"
    output: "1343"
    name: "Mul_844"
    op_type: "Mul"
  }
  node {
    input: "1343"
    output: "1346"
    name: "Unsqueeze_845"
    op_type: "Unsqueeze"
    attribute {
      name: "axes"
      ints: 0
      type: INTS
    }
  }
  node {
    input: "1278"
    output: "1347"
    name: "Unsqueeze_846"
    op_type: "Unsqueeze"
    attribute {
      name: "axes"
      ints: 0
      type: INTS
    }
  }
  node {
    input: "1654"
    input: "1346"
    input: "1347"
    output: "1348"
    name: "Concat_847"
    op_type: "Concat"
    attribute {
      name: "axis"
      i: 0
      type: INT
    }
  }
  node {
    input: "1312"
    input: "1348"
    output: "1349"
    name: "Reshape_848"
    op_type: "Reshape"
  }
  node {
    input: "1349"
    output: "1350"
    name: "Transpose_849"
    op_type: "Transpose"
    attribute {
      name: "perm"
      ints: 1
      ints: 0
      ints: 2
      type: INTS
    }
  }
  node {
    output: "1351"
    name: "Constant_850"
    op_type: "Constant"
    attribute {
      name: "value"
      t {
        data_type: 7
        raw_data: "\002\000\000\000\000\000\000\000"
      }
      type: TENSOR
    }
  }
  node {
    input: "1271"
    input: "1351"
    output: "1352"
    name: "Mul_851"
    op_type: "Mul"
  }
  node {
    input: "1352"
    output: "1355"
    name: "Unsqueeze_852"
    op_type: "Unsqueeze"
    attribute {
      name: "axes"
      ints: 0
      type: INTS
    }
  }
  node {
    input: "1278"
    output: "1356"
    name: "Unsqueeze_853"
    op_type: "Unsqueeze"
    attribute {
      name: "axes"
      ints: 0
      type: INTS
    }
  }
  node {
    input: "1655"
    input: "1355"
    input: "1356"
    output: "1357"
    name: "Concat_854"
    op_type: "Concat"
    attribute {
      name: "axis"
      i: 0
      type: INT
    }
  }
  node {
    input: "1331"
    input: "1357"
    output: "1358"
    name: "Reshape_855"
    op_type: "Reshape"
  }
  node {
    input: "1358"
    output: "1359"
    name: "Transpose_856"
    op_type: "Transpose"
    attribute {
      name: "perm"
      ints: 1
      ints: 0
      ints: 2
      type: INTS
    }
  }
  node {
    input: "1350"
    output: "1360"
    name: "Shape_857"
    op_type: "Shape"
  }
  node {
    output: "1361"
    name: "Constant_858"
    op_type: "Constant"
    attribute {
      name: "value"
      t {
        data_type: 7
        raw_data: "\001\000\000\000\000\000\000\000"
      }
      type: TENSOR
    }
  }
  node {
    input: "1360"
    input: "1361"
    output: "1362"
    name: "Gather_859"
    op_type: "Gather"
    attribute {
      name: "axis"
      i: 0
      type: INT
    }
  }
  node {
    input: "1349"
    output: "1363"
    name: "Transpose_860"
    op_type: "Transpose"
    attribute {
      name: "perm"
      ints: 1
      ints: 2
      ints: 0
      type: INTS
    }
  }
  node {
    input: "1341"
    input: "1363"
    output: "1364"
    name: "MatMul_861"
    op_type: "MatMul"
  }
  node {
    input: "1271"
    output: "1366"
    name: "Unsqueeze_862"
    op_type: "Unsqueeze"
    attribute {
      name: "axes"
      ints: 0
      type: INTS
    }
  }
  node {
    input: "1268"
    output: "1368"
    name: "Unsqueeze_863"
    op_type: "Unsqueeze"
    attribute {
      name: "axes"
      ints: 0
      type: INTS
    }
  }
  node {
    input: "1362"
    output: "1369"
    name: "Unsqueeze_864"
    op_type: "Unsqueeze"
    attribute {
      name: "axes"
      ints: 0
      type: INTS
    }
  }
  node {
    input: "1366"
    input: "1656"
    input: "1368"
    input: "1369"
    output: "1370"
    name: "Concat_865"
    op_type: "Concat"
    attribute {
      name: "axis"
      i: 0
      type: INT
    }
  }
  node {
    input: "1364"
    input: "1370"
    output: "1371"
    name: "Reshape_866"
    op_type: "Reshape"
  }
  node {
    input: "517"
    output: "1372"
    name: "Unsqueeze_867"
    op_type: "Unsqueeze"
    attribute {
      name: "axes"
      ints: 1
      type: INTS
    }
  }
  node {
    input: "1372"
    output: "1373"
    name: "Unsqueeze_868"
    op_type: "Unsqueeze"
    attribute {
      name: "axes"
      ints: 2
      type: INTS
    }
  }
  node {
    input: "1373"
    output: "1374"
    name: "Cast_869"
    op_type: "Cast"
    attribute {
      name: "to"
      i: 9
      type: INT
    }
  }
  node {
    output: "1375"
    name: "Constant_870"
    op_type: "Constant"
    attribute {
      name: "value"
      t {
        data_type: 1
        raw_data: "\000\000\200\377"
      }
      type: TENSOR
    }
  }
  node {
    input: "1374"
    input: "1375"
    input: "1371"
    output: "1376"
    name: "Where_871"
    op_type: "Where"
  }
  node {
    output: "1377"
    name: "Constant_872"
    op_type: "Constant"
    attribute {
      name: "value"
      t {
        data_type: 7
        raw_data: "\002\000\000\000\000\000\000\000"
      }
      type: TENSOR
    }
  }
  node {
    input: "1271"
    input: "1377"
    output: "1378"
    name: "Mul_873"
    op_type: "Mul"
  }
  node {
    input: "1378"
    output: "1379"
    name: "Unsqueeze_874"
    op_type: "Unsqueeze"
    attribute {
      name: "axes"
      ints: 0
      type: INTS
    }
  }
  node {
    input: "1268"
    output: "1380"
    name: "Unsqueeze_875"
    op_type: "Unsqueeze"
    attribute {
      name: "axes"
      ints: 0
      type: INTS
    }
  }
  node {
    input: "1362"
    output: "1381"
    name: "Unsqueeze_876"
    op_type: "Unsqueeze"
    attribute {
      name: "axes"
      ints: 0
      type: INTS
    }
  }
  node {
    input: "1379"
    input: "1380"
    input: "1381"
    output: "1382"
    name: "Concat_877"
    op_type: "Concat"
    attribute {
      name: "axis"
      i: 0
      type: INT
    }
  }
  node {
    input: "1376"
    input: "1382"
    output: "1383"
    name: "Reshape_878"
    op_type: "Reshape"
  }
  node {
    input: "1383"
    output: "1384"
    name: "Softmax_879"
    op_type: "Softmax"
    attribute {
      name: "axis"
      i: 2
      type: INT
    }
  }
  node {
    input: "1384"
    input: "1359"
    output: "1385"
    name: "MatMul_880"
    op_type: "MatMul"
  }
  node {
    input: "1385"
    output: "1386"
    name: "Transpose_881"
    op_type: "Transpose"
    attribute {
      name: "perm"
      ints: 1
      ints: 0
      ints: 2
      type: INTS
    }
  }
  node {
    input: "1268"
    output: "1387"
    name: "Unsqueeze_882"
    op_type: "Unsqueeze"
    attribute {
      name: "axes"
      ints: 0
      type: INTS
    }
  }
  node {
    input: "1271"
    output: "1388"
    name: "Unsqueeze_883"
    op_type: "Unsqueeze"
    attribute {
      name: "axes"
      ints: 0
      type: INTS
    }
  }
  node {
    input: "1274"
    output: "1389"
    name: "Unsqueeze_884"
    op_type: "Unsqueeze"
    attribute {
      name: "axes"
      ints: 0
      type: INTS
    }
  }
  node {
    input: "1387"
    input: "1388"
    input: "1389"
    output: "1390"
    name: "Concat_885"
    op_type: "Concat"
    attribute {
      name: "axis"
      i: 0
      type: INT
    }
  }
  node {
    input: "1386"
    input: "1390"
    output: "1391"
    name: "Reshape_886"
    op_type: "Reshape"
  }
  node {
    input: "1391"
    input: "1657"
    output: "1393"
    name: "MatMul_887"
    op_type: "MatMul"
  }
  node {
    input: "1393"
    input: "module.transformer.decoder.layers.1.multihead_attn.out_proj.bias"
    output: "1394"
    name: "Add_888"
    op_type: "Add"
  }
  node {
    input: "1263"
    input: "1394"
    output: "1395"
    name: "Add_889"
    op_type: "Add"
  }
  node {
    input: "1395"
    output: "1396"
    name: "ReduceMean_890"
    op_type: "ReduceMean"
    attribute {
      name: "axes"
      ints: -1
      type: INTS
    }
  }
  node {
    input: "1395"
    input: "1396"
    output: "1397"
    name: "Sub_891"
    op_type: "Sub"
  }
  node {
    output: "1398"
    name: "Constant_892"
    op_type: "Constant"
    attribute {
      name: "value"
      t {
        data_type: 1
        raw_data: "\000\000\000@"
      }
      type: TENSOR
    }
  }
  node {
    input: "1397"
    input: "1398"
    output: "1399"
    name: "Pow_893"
    op_type: "Pow"
  }
  node {
    input: "1399"
    output: "1400"
    name: "ReduceMean_894"
    op_type: "ReduceMean"
    attribute {
      name: "axes"
      ints: -1
      type: INTS
    }
  }
  node {
    output: "1401"
    name: "Constant_895"
    op_type: "Constant"
    attribute {
      name: "value"
      t {
        data_type: 1
        raw_data: "\254\305\'7"
      }
      type: TENSOR
    }
  }
  node {
    input: "1400"
    input: "1401"
    output: "1402"
    name: "Add_896"
    op_type: "Add"
  }
  node {
    input: "1402"
    output: "1403"
    name: "Sqrt_897"
    op_type: "Sqrt"
  }
  node {
    input: "1397"
    input: "1403"
    output: "1404"
    name: "Div_898"
    op_type: "Div"
  }
  node {
    input: "1404"
    input: "module.transformer.decoder.layers.1.norm2.weight"
    output: "1405"
    name: "Mul_899"
    op_type: "Mul"
  }
  node {
    input: "1405"
    input: "module.transformer.decoder.layers.1.norm2.bias"
    output: "1406"
    name: "Add_900"
    op_type: "Add"
  }
  node {
    input: "1406"
    input: "1658"
    output: "1408"
    name: "MatMul_901"
    op_type: "MatMul"
  }
  node {
    input: "1408"
    input: "module.transformer.decoder.layers.1.linear1.bias"
    output: "1409"
    name: "Add_902"
    op_type: "Add"
  }
  node {
    input: "1409"
    output: "1410"
    name: "Relu_903"
    op_type: "Relu"
  }
  node {
    input: "1410"
    input: "1659"
    output: "1412"
    name: "MatMul_904"
    op_type: "MatMul"
  }
  node {
    input: "1412"
    input: "module.transformer.decoder.layers.1.linear2.bias"
    output: "1413"
    name: "Add_905"
    op_type: "Add"
  }
  node {
    input: "1406"
    input: "1413"
    output: "1414"
    name: "Add_906"
    op_type: "Add"
  }
  node {
    input: "1414"
    output: "1415"
    name: "ReduceMean_907"
    op_type: "ReduceMean"
    attribute {
      name: "axes"
      ints: -1
      type: INTS
    }
  }
  node {
    input: "1414"
    input: "1415"
    output: "1416"
    name: "Sub_908"
    op_type: "Sub"
  }
  node {
    output: "1417"
    name: "Constant_909"
    op_type: "Constant"
    attribute {
      name: "value"
      t {
        data_type: 1
        raw_data: "\000\000\000@"
      }
      type: TENSOR
    }
  }
  node {
    input: "1416"
    input: "1417"
    output: "1418"
    name: "Pow_910"
    op_type: "Pow"
  }
  node {
    input: "1418"
    output: "1419"
    name: "ReduceMean_911"
    op_type: "ReduceMean"
    attribute {
      name: "axes"
      ints: -1
      type: INTS
    }
  }
  node {
    output: "1420"
    name: "Constant_912"
    op_type: "Constant"
    attribute {
      name: "value"
      t {
        data_type: 1
        raw_data: "\254\305\'7"
      }
      type: TENSOR
    }
  }
  node {
    input: "1419"
    input: "1420"
    output: "1421"
    name: "Add_913"
    op_type: "Add"
  }
  node {
    input: "1421"
    output: "1422"
    name: "Sqrt_914"
    op_type: "Sqrt"
  }
  node {
    input: "1416"
    input: "1422"
    output: "1423"
    name: "Div_915"
    op_type: "Div"
  }
  node {
    input: "1423"
    input: "module.transformer.decoder.layers.1.norm3.weight"
    output: "1424"
    name: "Mul_916"
    op_type: "Mul"
  }
  node {
    input: "1424"
    input: "module.transformer.decoder.layers.1.norm3.bias"
    output: "1425"
    name: "Add_917"
    op_type: "Add"
  }
  node {
    input: "1425"
    output: "1426"
    name: "ReduceMean_918"
    op_type: "ReduceMean"
    attribute {
      name: "axes"
      ints: -1
      type: INTS
    }
  }
  node {
    input: "1425"
    input: "1426"
    output: "1427"
    name: "Sub_919"
    op_type: "Sub"
  }
  node {
    output: "1428"
    name: "Constant_920"
    op_type: "Constant"
    attribute {
      name: "value"
      t {
        data_type: 1
        raw_data: "\000\000\000@"
      }
      type: TENSOR
    }
  }
  node {
    input: "1427"
    input: "1428"
    output: "1429"
    name: "Pow_921"
    op_type: "Pow"
  }
  node {
    input: "1429"
    output: "1430"
    name: "ReduceMean_922"
    op_type: "ReduceMean"
    attribute {
      name: "axes"
      ints: -1
      type: INTS
    }
  }
  node {
    output: "1431"
    name: "Constant_923"
    op_type: "Constant"
    attribute {
      name: "value"
      t {
        data_type: 1
        raw_data: "\254\305\'7"
      }
      type: TENSOR
    }
  }
  node {
    input: "1430"
    input: "1431"
    output: "1432"
    name: "Add_924"
    op_type: "Add"
  }
  node {
    input: "1432"
    output: "1433"
    name: "Sqrt_925"
    op_type: "Sqrt"
  }
  node {
    input: "1427"
    input: "1433"
    output: "1434"
    name: "Div_926"
    op_type: "Div"
  }
  node {
    input: "1434"
    input: "module.transformer.decoder.norm.weight"
    output: "1435"
    name: "Mul_927"
    op_type: "Mul"
  }
  node {
    input: "1435"
    input: "module.transformer.decoder.norm.bias"
    output: "1436"
    name: "Add_928"
    op_type: "Add"
  }
  node {
    input: "1144"
    output: "1437"
    name: "Unsqueeze_929"
    op_type: "Unsqueeze"
    attribute {
      name: "axes"
      ints: 0
      type: INTS
    }
  }
  node {
    input: "1436"
    output: "1438"
    name: "Unsqueeze_930"
    op_type: "Unsqueeze"
    attribute {
      name: "axes"
      ints: 0
      type: INTS
    }
  }
  node {
    input: "1437"
    input: "1438"
    output: "1439"
    name: "Concat_931"
    op_type: "Concat"
    attribute {
      name: "axis"
      i: 0
      type: INT
    }
  }
  node {
    input: "1439"
    output: "1440"
    name: "Transpose_932"
    op_type: "Transpose"
    attribute {
      name: "perm"
      ints: 0
      ints: 2
      ints: 1
      ints: 3
      type: INTS
    }
  }
  node {
    input: "1440"
    input: "1660"
    output: "1442"
    name: "MatMul_933"
    op_type: "MatMul"
  }
  node {
    input: "1442"
    input: "module.class_embed.bias"
    output: "output_class"
    name: "Add_934"
    op_type: "Add"
  }
  node {
    input: "1440"
    input: "1661"
    output: "1445"
    name: "MatMul_935"
    op_type: "MatMul"
  }
  node {
    input: "1445"
    input: "module.specific_embed.layers.0.bias"
    output: "1446"
    name: "Add_936"
    op_type: "Add"
  }
  node {
    input: "1446"
    output: "1447"
    name: "Relu_937"
    op_type: "Relu"
  }
  node {
    input: "1447"
    input: "1662"
    output: "1449"
    name: "MatMul_938"
    op_type: "MatMul"
  }
  node {
    input: "1449"
    input: "module.specific_embed.layers.1.bias"
    output: "1450"
    name: "Add_939"
    op_type: "Add"
  }
  node {
    input: "1450"
    output: "1451"
    name: "Relu_940"
    op_type: "Relu"
  }
  node {
    input: "1451"
    input: "1663"
    output: "1453"
    name: "MatMul_941"
    op_type: "MatMul"
  }
  node {
    input: "1453"
    input: "module.specific_embed.layers.2.bias"
    output: "1454"
    name: "Add_942"
    op_type: "Add"
  }
  node {
    input: "1440"
    input: "1664"
    output: "1456"
    name: "MatMul_943"
    op_type: "MatMul"
  }
  node {
    input: "1456"
    input: "module.shared_embed.layers.0.bias"
    output: "1457"
    name: "Add_944"
    op_type: "Add"
  }
  node {
    input: "1457"
    output: "1458"
    name: "Relu_945"
    op_type: "Relu"
  }
  node {
    input: "1458"
    input: "1665"
    output: "1460"
    name: "MatMul_946"
    op_type: "MatMul"
  }
  node {
    input: "1460"
    input: "module.shared_embed.layers.1.bias"
    output: "1461"
    name: "Add_947"
    op_type: "Add"
  }
  node {
    input: "1461"
    output: "1462"
    name: "Relu_948"
    op_type: "Relu"
  }
  node {
    input: "1462"
    input: "1666"
    output: "1464"
    name: "MatMul_949"
    op_type: "MatMul"
  }
  node {
    input: "1464"
    input: "module.shared_embed.layers.2.bias"
    output: "1465"
    name: "Add_950"
    op_type: "Add"
  }
  node {
    input: "1465"
    output: "1466"
    name: "ReduceMean_951"
    op_type: "ReduceMean"
    attribute {
      name: "axes"
      ints: -2
      type: INTS
    }
    attribute {
      name: "keepdims"
      i: 1
      type: INT
    }
  }
  node {
    input: "1454"
    output: "1467"
    name: "Shape_952"
    op_type: "Shape"
  }
  node {
    output: "1468"
    name: "Constant_953"
    op_type: "Constant"
    attribute {
      name: "value"
      t {
        data_type: 7
        raw_data: "\002\000\000\000\000\000\000\000"
      }
      type: TENSOR
    }
  }
  node {
    input: "1467"
    input: "1468"
    output: "1469"
    name: "Gather_954"
    op_type: "Gather"
    attribute {
      name: "axis"
      i: 0
      type: INT
    }
  }
  node {
    input: "1469"
    output: "1475"
    name: "Unsqueeze_955"
    op_type: "Unsqueeze"
    attribute {
      name: "axes"
      ints: 0
      type: INTS
    }
  }
  node {
    input: "1667"
    input: "1668"
    input: "1475"
    input: "1669"
    output: "1477"
    name: "Concat_956"
    op_type: "Concat"
    attribute {
      name: "axis"
      i: 0
      type: INT
    }
  }
  node {
    input: "1469"
    output: "1480"
    name: "Unsqueeze_957"
    op_type: "Unsqueeze"
    attribute {
      name: "axes"
      ints: 0
      type: INTS
    }
  }
  node {
    input: "1670"
    input: "1671"
    input: "1480"
    input: "1672"
    output: "1482"
    name: "Concat_958"
    op_type: "Concat"
    attribute {
      name: "axis"
      i: 0
      type: INT
    }
  }
  node {
    input: "1477"
    output: "1483"
    name: "Shape_959"
    op_type: "Shape"
  }
  node {
    input: "1483"
    output: "1484"
    name: "ConstantOfShape_960"
    op_type: "ConstantOfShape"
    attribute {
      name: "value"
      t {
        dims: 1
        data_type: 7
        raw_data: "\001\000\000\000\000\000\000\000"
      }
      type: TENSOR
    }
  }
  node {
    input: "1466"
    input: "1484"
    output: "1485"
    name: "Expand_961"
    op_type: "Expand"
  }
  node {
    input: "1485"
    input: "1482"
    output: "1486"
    name: "Tile_962"
    op_type: "Tile"
  }
  node {
    output: "1487"
    name: "Constant_963"
    op_type: "Constant"
    attribute {
      name: "value"
      t {
        dims: 1
        data_type: 7
        raw_data: "\003\000\000\000\000\000\000\000"
      }
      type: TENSOR
    }
  }
  node {
    output: "1488"
    name: "Constant_964"
    op_type: "Constant"
    attribute {
      name: "value"
      t {
        dims: 1
        data_type: 7
        raw_data: "\000\000\000\000\000\000\000\000"
      }
      type: TENSOR
    }
  }
  node {
    output: "1489"
    name: "Constant_965"
    op_type: "Constant"
    attribute {
      name: "value"
      t {
        dims: 1
        data_type: 7
        raw_data: "\002\000\000\000\000\000\000\000"
      }
      type: TENSOR
    }
  }
  node {
    output: "1490"
    name: "Constant_966"
    op_type: "Constant"
    attribute {
      name: "value"
      t {
        dims: 1
        data_type: 7
        raw_data: "\001\000\000\000\000\000\000\000"
      }
      type: TENSOR
    }
  }
  node {
    input: "1454"
    input: "1488"
    input: "1489"
    input: "1487"
    input: "1490"
    output: "1491"
    name: "Slice_967"
    op_type: "Slice"
  }
  node {
    output: "1492"
    name: "Constant_968"
    op_type: "Constant"
    attribute {
      name: "value"
      t {
        dims: 1
        data_type: 7
        raw_data: "\003\000\000\000\000\000\000\000"
      }
      type: TENSOR
    }
  }
  node {
    output: "1493"
    name: "Constant_969"
    op_type: "Constant"
    attribute {
      name: "value"
      t {
        dims: 1
        data_type: 7
        raw_data: "\002\000\000\000\000\000\000\000"
      }
      type: TENSOR
    }
  }
  node {
    output: "1494"
    name: "Constant_970"
    op_type: "Constant"
    attribute {
      name: "value"
      t {
        dims: 1
        data_type: 7
        raw_data: "\377\377\377\377\377\377\377\177"
      }
      type: TENSOR
    }
  }
  node {
    output: "1495"
    name: "Constant_971"
    op_type: "Constant"
    attribute {
      name: "value"
      t {
        dims: 1
        data_type: 7
        raw_data: "\001\000\000\000\000\000\000\000"
      }
      type: TENSOR
    }
  }
  node {
    input: "1454"
    input: "1493"
    input: "1494"
    input: "1492"
    input: "1495"
    output: "1496"
    name: "Slice_972"
    op_type: "Slice"
  }
  node {
    input: "1491"
    input: "1486"
    input: "1496"
    output: "output_specific"
    name: "Concat_973"
    op_type: "Concat"
    attribute {
      name: "axis"
      i: -1
      type: INT
    }
  }
  node {
    output: "1498"
    name: "Constant_974"
    op_type: "Constant"
    attribute {
      name: "value"
      t {
        data_type: 7
        raw_data: "\377\377\377\377\377\377\377\377"
      }
      type: TENSOR
    }
  }
  node {
    input: "output_class"
    input: "1498"
    output: "out_pred_logits"
    name: "Gather_975"
    op_type: "Gather"
    attribute {
      name: "axis"
      i: 0
      type: INT
    }
  }
  node {
    output: "1500"
    name: "Constant_976"
    op_type: "Constant"
    attribute {
      name: "value"
      t {
        data_type: 7
        raw_data: "\377\377\377\377\377\377\377\377"
      }
      type: TENSOR
    }
  }
  node {
    input: "output_specific"
    input: "1500"
    output: "out_pred_curves"
    name: "Gather_977"
    op_type: "Gather"
    attribute {
      name: "axis"
      i: 0
      type: INT
    }
  }
  initializer {
      dims: 16
      dims: 3
      dims: 7
      dims: 7
      data_type: 1
      name: "module.conv1.weight"
  }
  initializer {
      dims: 32
      dims: 128
      dims: 1
      dims: 1
      data_type: 1
      name: "module.input_proj.weight"
  }
  initializer {
    dims: 32
    data_type: 1
    name: "module.input_proj.bias"
    raw_data: "…"
  }
  initializer {
      dims: 96
      dims: 32
      data_type: 1
      name: "module.transformer.encoder.layers.0.self_attn.in_proj_weight"
  }
  initializer {
      dims: 96
      data_type: 1
      name: "module.transformer.encoder.layers.0.self_attn.in_proj_bias"
  }
  initializer {
    dims: 32
    data_type: 1
    name: "module.transformer.encoder.layers.0.self_attn.out_proj.bias"
    raw_data: "…"
  }
  initializer {
      dims: 128
      data_type: 1
      name: "module.transformer.encoder.layers.0.linear1.bias"
  }
  initializer {
    dims: 32
    data_type: 1
    name: "module.transformer.encoder.layers.0.linear2.bias"
    raw_data: "…"
  }
  initializer {
    dims: 32
    data_type: 1
    name: "module.transformer.encoder.layers.0.norm1.weight"
    raw_data: "…"
  }
  initializer {
    dims: 32
    data_type: 1
    name: "module.transformer.encoder.layers.0.norm1.bias"
    raw_data: "…"
  }
  initializer {
    dims: 32
    data_type: 1
    name: "module.transformer.encoder.layers.0.norm2.weight"
    raw_data: "…"
  }
  initializer {
    dims: 32
    data_type: 1
    name: "module.transformer.encoder.layers.0.norm2.bias"
    raw_data: "…"
  }
  initializer {
      dims: 96
      dims: 32
      data_type: 1
      name: "module.transformer.encoder.layers.1.self_attn.in_proj_weight"
  }
  initializer {
      dims: 96
      data_type: 1
      name: "module.transformer.encoder.layers.1.self_attn.in_proj_bias"
  }
  initializer {
    dims: 32
    data_type: 1
    name: "module.transformer.encoder.layers.1.self_attn.out_proj.bias"
    raw_data: "…"
  }
  initializer {
      dims: 128
      data_type: 1
      name: "module.transformer.encoder.layers.1.linear1.bias"
  }
  initializer {
    dims: 32
    data_type: 1
    name: "module.transformer.encoder.layers.1.linear2.bias"
    raw_data: "…"
  }
  initializer {
    dims: 32
    data_type: 1
    name: "module.transformer.encoder.layers.1.norm1.weight"
    raw_data: "…"
  }
  initializer {
    dims: 32
    data_type: 1
    name: "module.transformer.encoder.layers.1.norm1.bias"
    raw_data: "…"
  }
  initializer {
    dims: 32
    data_type: 1
    name: "module.transformer.encoder.layers.1.norm2.weight"
    raw_data: "…"
  }
  initializer {
    dims: 32
    data_type: 1
    name: "module.transformer.encoder.layers.1.norm2.bias"
    raw_data: "…"
  }
  initializer {
      dims: 96
      dims: 32
      data_type: 1
      name: "module.transformer.decoder.layers.0.self_attn.in_proj_weight"
  }
  initializer {
      dims: 96
      data_type: 1
      name: "module.transformer.decoder.layers.0.self_attn.in_proj_bias"
  }
  initializer {
    dims: 32
    data_type: 1
    name: "module.transformer.decoder.layers.0.self_attn.out_proj.bias"
    raw_data: "…"
  }
  initializer {
      dims: 96
      dims: 32
      data_type: 1
      name: "module.transformer.decoder.layers.0.multihead_attn.in_proj_weight"
  }
  initializer {
      dims: 96
      data_type: 1
      name: "module.transformer.decoder.layers.0.multihead_attn.in_proj_bias"
  }
  initializer {
    dims: 32
    data_type: 1
    name: "module.transformer.decoder.layers.0.multihead_attn.out_proj.bias"
    raw_data: "…"
  }
  initializer {
      dims: 128
      data_type: 1
      name: "module.transformer.decoder.layers.0.linear1.bias"
  }
  initializer {
    dims: 32
    data_type: 1
    name: "module.transformer.decoder.layers.0.linear2.bias"
    raw_data: "…"
  }
  initializer {
    dims: 32
    data_type: 1
    name: "module.transformer.decoder.layers.0.norm1.weight"
    raw_data: "…"
  }
  initializer {
    dims: 32
    data_type: 1
    name: "module.transformer.decoder.layers.0.norm1.bias"
    raw_data: "…"
  }
  initializer {
    dims: 32
    data_type: 1
    name: "module.transformer.decoder.layers.0.norm2.weight"
    raw_data: "…"
  }
  initializer {
    dims: 32
    data_type: 1
    name: "module.transformer.decoder.layers.0.norm2.bias"
    raw_data: "…"
  }
  initializer {
    dims: 32
    data_type: 1
    name: "module.transformer.decoder.layers.0.norm3.weight"
    raw_data: "…"
  }
  initializer {
    dims: 32
    data_type: 1
    name: "module.transformer.decoder.layers.0.norm3.bias"
    raw_data: "…"
  }
  initializer {
      dims: 96
      dims: 32
      data_type: 1
      name: "module.transformer.decoder.layers.1.self_attn.in_proj_weight"
  }
  initializer {
      dims: 96
      data_type: 1
      name: "module.transformer.decoder.layers.1.self_attn.in_proj_bias"
  }
  initializer {
    dims: 32
    data_type: 1
    name: "module.transformer.decoder.layers.1.self_attn.out_proj.bias"
    raw_data: "…"
  }
  initializer {
      dims: 96
      dims: 32
      data_type: 1
      name: "module.transformer.decoder.layers.1.multihead_attn.in_proj_weight"
  }
  initializer {
      dims: 96
      data_type: 1
      name: "module.transformer.decoder.layers.1.multihead_attn.in_proj_bias"
  }
  initializer {
    dims: 32
    data_type: 1
    name: "module.transformer.decoder.layers.1.multihead_attn.out_proj.bias"
    raw_data: "…"
  }
  initializer {
      dims: 128
      data_type: 1
      name: "module.transformer.decoder.layers.1.linear1.bias"
  }
  initializer {
    dims: 32
    data_type: 1
    name: "module.transformer.decoder.layers.1.linear2.bias"
    raw_data: "…"
  }
  initializer {
    dims: 32
    data_type: 1
    name: "module.transformer.decoder.layers.1.norm1.weight"
    raw_data: "…"
  }
  initializer {
    dims: 32
    data_type: 1
    name: "module.transformer.decoder.layers.1.norm1.bias"
    raw_data: "…"
  }
  initializer {
    dims: 32
    data_type: 1
    name: "module.transformer.decoder.layers.1.norm2.weight"
    raw_data: "…"
  }
  initializer {
    dims: 32
    data_type: 1
    name: "module.transformer.decoder.layers.1.norm2.bias"
    raw_data: "…"
  }
  initializer {
    dims: 32
    data_type: 1
    name: "module.transformer.decoder.layers.1.norm3.weight"
    raw_data: "…"
  }
  initializer {
    dims: 32
    data_type: 1
    name: "module.transformer.decoder.layers.1.norm3.bias"
    raw_data: "…"
  }
  initializer {
    dims: 32
    data_type: 1
    name: "module.transformer.decoder.norm.weight"
    raw_data: "…"
  }
  initializer {
    dims: 32
    data_type: 1
    name: "module.transformer.decoder.norm.bias"
    raw_data: "…"
  }
  initializer {
    dims: 2
    data_type: 1
    name: "module.class_embed.bias"
    raw_data: "\306\262\261\276\307\231\325>"
  }
  initializer {
    dims: 32
    data_type: 1
    name: "module.specific_embed.layers.0.bias"
    raw_data: "…"
  }
  initializer {
    dims: 32
    data_type: 1
    name: "module.specific_embed.layers.1.bias"
    raw_data: "…"
  }
  initializer {
    dims: 4
    data_type: 1
    name: "module.specific_embed.layers.2.bias"
    raw_data: "0\363\217>\t^\316>\271\251\232=\016&\231="
  }
  initializer {
    dims: 32
    data_type: 1
    name: "module.shared_embed.layers.0.bias"
    raw_data: "…"
  }
  initializer {
    dims: 32
    data_type: 1
    name: "module.shared_embed.layers.1.bias"
    raw_data: "…"
  }
  initializer {
    dims: 4
    data_type: 1
    name: "module.shared_embed.layers.2.bias"
    raw_data: "\304b\205=\034\005\322=\002\020\215\275\244\332\031>"
  }
  initializer {
      dims: 16
      dims: 16
      dims: 3
      dims: 3
      data_type: 1
      name: "1503"
  }
  initializer {
    dims: 16
    data_type: 1
    name: "1504"
    raw_data: "…"
  }
  initializer {
      dims: 16
      dims: 16
      dims: 3
      dims: 3
      data_type: 1
      name: "1506"
  }
  initializer {
    dims: 16
    data_type: 1
    name: "1507"
    raw_data: "…"
  }
  initializer {
      dims: 32
      dims: 16
      dims: 3
      dims: 3
      data_type: 1
      name: "1509"
  }
  initializer {
    dims: 32
    data_type: 1
    name: "1510"
    raw_data: "…"
  }
  initializer {
      dims: 32
      dims: 32
      dims: 3
      dims: 3
      data_type: 1
      name: "1512"
  }
  initializer {
    dims: 32
    data_type: 1
    name: "1513"
    raw_data: "…"
  }
  initializer {
      dims: 32
      dims: 16
      dims: 1
      dims: 1
      data_type: 1
      name: "1515"
  }
  initializer {
    dims: 32
    data_type: 1
    name: "1516"
    raw_data: "…"
  }
  initializer {
      dims: 32
      dims: 32
      dims: 3
      dims: 3
      data_type: 1
      name: "1518"
  }
  initializer {
    dims: 32
    data_type: 1
    name: "1519"
    raw_data: "…"
  }
  initializer {
      dims: 32
      dims: 32
      dims: 3
      dims: 3
      data_type: 1
      name: "1521"
  }
  initializer {
    dims: 32
    data_type: 1
    name: "1522"
    raw_data: "…"
  }
  initializer {
      dims: 64
      dims: 32
      dims: 3
      dims: 3
      data_type: 1
      name: "1524"
  }
  initializer {
      dims: 64
      data_type: 1
      name: "1525"
  }
  initializer {
      dims: 64
      dims: 64
      dims: 3
      dims: 3
      data_type: 1
      name: "1527"
  }
  initializer {
      dims: 64
      data_type: 1
      name: "1528"
  }
  initializer {
      dims: 64
      dims: 32
      dims: 1
      dims: 1
      data_type: 1
      name: "1530"
  }
  initializer {
      dims: 64
      data_type: 1
      name: "1531"
  }
  initializer {
      dims: 64
      dims: 64
      dims: 3
      dims: 3
      data_type: 1
      name: "1533"
  }
  initializer {
      dims: 64
      data_type: 1
      name: "1534"
  }
  initializer {
      dims: 64
      dims: 64
      dims: 3
      dims: 3
      data_type: 1
      name: "1536"
  }
  initializer {
      dims: 64
      data_type: 1
      name: "1537"
  }
  initializer {
      dims: 128
      dims: 64
      dims: 3
      dims: 3
      data_type: 1
      name: "1539"
  }
  initializer {
      dims: 128
      data_type: 1
      name: "1540"
  }
  initializer {
      dims: 128
      dims: 128
      dims: 3
      dims: 3
      data_type: 1
      name: "1542"
  }
  initializer {
      dims: 128
      data_type: 1
      name: "1543"
  }
  initializer {
      dims: 128
      dims: 64
      dims: 1
      dims: 1
      data_type: 1
      name: "1545"
  }
  initializer {
      dims: 128
      data_type: 1
      name: "1546"
  }
  initializer {
      dims: 128
      dims: 128
      dims: 3
      dims: 3
      data_type: 1
      name: "1548"
  }
  initializer {
      dims: 128
      data_type: 1
      name: "1549"
  }
  initializer {
      dims: 128
      dims: 128
      dims: 3
      dims: 3
      data_type: 1
      name: "1551"
  }
  initializer {
      dims: 128
      data_type: 1
      name: "1552"
  }
  initializer {
    dims: 1
    dims: 16
    dims: 1
    dims: 1
    data_type: 1
    name: "1560"
    raw_data: "…"
  }
  initializer {
    dims: 1
    dims: 16
    dims: 1
    dims: 1
    data_type: 1
    name: "1562"
    raw_data: "…"
  }
  initializer {
      dims: 7
      dims: 1
      dims: 32
      data_type: 1
      name: "1563"
  }
  initializer {
    dims: 1
    data_type: 7
    name: "1564"
    raw_data: "\001\000\000\000\000\000\000\000"
  }
  initializer {
    dims: 1
    data_type: 7
    name: "1565"
    raw_data: "\001\000\000\000\000\000\000\000"
  }
  initializer {
    dims: 1
    data_type: 7
    name: "1566"
    raw_data: "\001\000\000\000\000\000\000\000"
  }
  initializer {
    dims: 1
    data_type: 7
    name: "1567"
    raw_data: "\001\000\000\000\000\000\000\000"
  }
  initializer {
    dims: 1
    data_type: 7
    name: "1568"
    raw_data: "\000\000\000\000\000\000\000\000"
  }
  initializer {
    dims: 1
    data_type: 7
    name: "1569"
    raw_data: "\000\000\000\000\000\000\000\000"
  }
  initializer {
    dims: 1
    data_type: 7
    name: "1570"
    raw_data: "\000\000\000\000\000\000\000\000"
  }
  initializer {
    dims: 1
    data_type: 7
    name: "1571"
    raw_data: "\000\000\000\000\000\000\000\000"
  }
  initializer {
    dims: 1
    data_type: 7
    name: "1572"
    raw_data: "\000\000\000\000\000\000\000\000"
  }
  initializer {
    dims: 1
    data_type: 7
    name: "1573"
    raw_data: "\000\000\000\000\000\000\000\000"
  }
  initializer {
    dims: 1
    data_type: 7
    name: "1574"
    raw_data: "\377\377\377\377\377\377\377\177"
  }
  initializer {
    dims: 1
    data_type: 7
    name: "1575"
    raw_data: "\000\000\000\000\000\000\000\000"
  }
  initializer {
    dims: 1
    data_type: 7
    name: "1576"
    raw_data: "\377\377\377\377\377\377\377\177"
  }
  initializer {
    dims: 1
    data_type: 7
    name: "1577"
    raw_data: "\000\000\000\000\000\000\000\000"
  }
  initializer {
    dims: 1
    data_type: 7
    name: "1578"
    raw_data: "\377\377\377\377\377\377\377\377"
  }
  initializer {
    dims: 1
    data_type: 7
    name: "1579"
    raw_data: "\377\377\377\377\377\377\377\377"
  }
  initializer {
    dims: 1
    data_type: 7
    name: "1580"
    raw_data: "\002\000\000\000\000\000\000\000"
  }
  initializer {
      dims: 32
      dims: 32
      data_type: 1
      name: "1581"
  }
  initializer {
      dims: 32
      dims: 128
      data_type: 1
      name: "1582"
  }
  initializer {
      dims: 128
      dims: 32
      data_type: 1
      name: "1583"
  }
  initializer {
    dims: 1
    data_type: 7
    name: "1584"
    raw_data: "\000\000\000\000\000\000\000\000"
  }
  initializer {
    dims: 1
    data_type: 7
    name: "1585"
    raw_data: "\000\000\000\000\000\000\000\000"
  }
  initializer {
    dims: 1
    data_type: 7
    name: "1586"
    raw_data: "\000\000\000\000\000\000\000\000"
  }
  initializer {
    dims: 1
    data_type: 7
    name: "1587"
    raw_data: "\000\000\000\000\000\000\000\000"
  }
  initializer {
    dims: 1
    data_type: 7
    name: "1588"
    raw_data: "\000\000\000\000\000\000\000\000"
  }
  initializer {
    dims: 1
    data_type: 7
    name: "1589"
    raw_data: "\000\000\000\000\000\000\000\000"
  }
  initializer {
    dims: 1
    data_type: 7
    name: "1590"
    raw_data: "\377\377\377\377\377\377\377\177"
  }
  initializer {
    dims: 1
    data_type: 7
    name: "1591"
    raw_data: "\000\000\000\000\000\000\000\000"
  }
  initializer {
    dims: 1
    data_type: 7
    name: "1592"
    raw_data: "\377\377\377\377\377\377\377\177"
  }
  initializer {
    dims: 1
    data_type: 7
    name: "1593"
    raw_data: "\000\000\000\000\000\000\000\000"
  }
  initializer {
    dims: 1
    data_type: 7
    name: "1594"
    raw_data: "\377\377\377\377\377\377\377\377"
  }
  initializer {
    dims: 1
    data_type: 7
    name: "1595"
    raw_data: "\377\377\377\377\377\377\377\377"
  }
  initializer {
    dims: 1
    data_type: 7
    name: "1596"
    raw_data: "\002\000\000\000\000\000\000\000"
  }
  initializer {
      dims: 32
      dims: 32
      data_type: 1
      name: "1597"
  }
  initializer {
    dims: 1
    data_type: 7
    name: "1598"
    raw_data: "\002\000\000\000\000\000\000\000"
  }
  initializer {
    data_type: 1
    name: "1599"
    raw_data: "\000\000\000@"
  }
  initializer {
      dims: 32
      dims: 128
      data_type: 1
      name: "1600"
  }
  initializer {
      dims: 128
      dims: 32
      data_type: 1
      name: "1601"
  }
  initializer {
    dims: 1
    data_type: 7
    name: "1602"
    raw_data: "\000\000\000\000\000\000\000\000"
  }
  initializer {
    dims: 1
    data_type: 7
    name: "1603"
    raw_data: "\000\000\000\000\000\000\000\000"
  }
  initializer {
    dims: 1
    data_type: 7
    name: "1604"
    raw_data: "\000\000\000\000\000\000\000\000"
  }
  initializer {
    dims: 1
    data_type: 7
    name: "1605"
    raw_data: "\000\000\000\000\000\000\000\000"
  }
  initializer {
    dims: 1
    data_type: 7
    name: "1606"
    raw_data: "\000\000\000\000\000\000\000\000"
  }
  initializer {
    dims: 1
    data_type: 7
    name: "1607"
    raw_data: "\000\000\000\000\000\000\000\000"
  }
  initializer {
    dims: 1
    data_type: 7
    name: "1608"
    raw_data: "\377\377\377\377\377\377\377\177"
  }
  initializer {
    dims: 1
    data_type: 7
    name: "1609"
    raw_data: "\000\000\000\000\000\000\000\000"
  }
  initializer {
    dims: 1
    data_type: 7
    name: "1610"
    raw_data: "\377\377\377\377\377\377\377\177"
  }
  initializer {
    dims: 1
    data_type: 7
    name: "1611"
    raw_data: "\000\000\000\000\000\000\000\000"
  }
  initializer {
    dims: 1
    data_type: 7
    name: "1612"
    raw_data: "\377\377\377\377\377\377\377\377"
  }
  initializer {
    dims: 1
    data_type: 7
    name: "1613"
    raw_data: "\377\377\377\377\377\377\377\377"
  }
  initializer {
      dims: 32
      dims: 32
      data_type: 1
      name: "1614"
  }
  initializer {
    dims: 1
    data_type: 7
    name: "1615"
    raw_data: "\000\000\000\000\000\000\000\000"
  }
  initializer {
    dims: 1
    data_type: 7
    name: "1616"
    raw_data: "\000\000\000\000\000\000\000\000"
  }
  initializer {
    dims: 1
    data_type: 7
    name: "1617"
    raw_data: "\000\000\000\000\000\000\000\000"
  }
  initializer {
    dims: 1
    data_type: 7
    name: "1618"
    raw_data: "\000\000\000\000\000\000\000\000"
  }
  initializer {
    dims: 1
    data_type: 7
    name: "1619"
    raw_data: "\000\000\000\000\000\000\000\000"
  }
  initializer {
    dims: 1
    data_type: 7
    name: "1620"
    raw_data: "\000\000\000\000\000\000\000\000"
  }
  initializer {
    dims: 1
    data_type: 7
    name: "1621"
    raw_data: "\377\377\377\377\377\377\377\177"
  }
  initializer {
    dims: 1
    data_type: 7
    name: "1622"
    raw_data: "\000\000\000\000\000\000\000\000"
  }
  initializer {
    dims: 1
    data_type: 7
    name: "1623"
    raw_data: "\377\377\377\377\377\377\377\177"
  }
  initializer {
    dims: 1
    data_type: 7
    name: "1624"
    raw_data: "\000\000\000\000\000\000\000\000"
  }
  initializer {
    dims: 1
    data_type: 7
    name: "1625"
    raw_data: "\377\377\377\377\377\377\377\377"
  }
  initializer {
    dims: 1
    data_type: 7
    name: "1626"
    raw_data: "\377\377\377\377\377\377\377\377"
  }
  initializer {
    dims: 1
    data_type: 7
    name: "1627"
    raw_data: "\002\000\000\000\000\000\000\000"
  }
  initializer {
      dims: 32
      dims: 32
      data_type: 1
      name: "1628"
  }
  initializer {
      dims: 32
      dims: 128
      data_type: 1
      name: "1629"
  }
  initializer {
      dims: 128
      dims: 32
      data_type: 1
      name: "1630"
  }
  initializer {
    dims: 1
    data_type: 7
    name: "1631"
    raw_data: "\000\000\000\000\000\000\000\000"
  }
  initializer {
    dims: 1
    data_type: 7
    name: "1632"
    raw_data: "\000\000\000\000\000\000\000\000"
  }
  initializer {
    dims: 1
    data_type: 7
    name: "1633"
    raw_data: "\000\000\000\000\000\000\000\000"
  }
  initializer {
    dims: 1
    data_type: 7
    name: "1634"
    raw_data: "\000\000\000\000\000\000\000\000"
  }
  initializer {
    dims: 1
    data_type: 7
    name: "1635"
    raw_data: "\000\000\000\000\000\000\000\000"
  }
  initializer {
    dims: 1
    data_type: 7
    name: "1636"
    raw_data: "\000\000\000\000\000\000\000\000"
  }
  initializer {
    dims: 1
    data_type: 7
    name: "1637"
    raw_data: "\377\377\377\377\377\377\377\177"
  }
  initializer {
    dims: 1
    data_type: 7
    name: "1638"
    raw_data: "\000\000\000\000\000\000\000\000"
  }
  initializer {
    dims: 1
    data_type: 7
    name: "1639"
    raw_data: "\377\377\377\377\377\377\377\177"
  }
  initializer {
    dims: 1
    data_type: 7
    name: "1640"
    raw_data: "\000\000\000\000\000\000\000\000"
  }
  initializer {
    dims: 1
    data_type: 7
    name: "1641"
    raw_data: "\377\377\377\377\377\377\377\377"
  }
  initializer {
    dims: 1
    data_type: 7
    name: "1642"
    raw_data: "\377\377\377\377\377\377\377\377"
  }
  initializer {
      dims: 32
      dims: 32
      data_type: 1
      name: "1643"
  }
  initializer {
    dims: 1
    data_type: 7
    name: "1644"
    raw_data: "\000\000\000\000\000\000\000\000"
  }
  initializer {
    dims: 1
    data_type: 7
    name: "1645"
    raw_data: "\000\000\000\000\000\000\000\000"
  }
  initializer {
    dims: 1
    data_type: 7
    name: "1646"
    raw_data: "\000\000\000\000\000\000\000\000"
  }
  initializer {
    dims: 1
    data_type: 7
    name: "1647"
    raw_data: "\000\000\000\000\000\000\000\000"
  }
  initializer {
    dims: 1
    data_type: 7
    name: "1648"
    raw_data: "\000\000\000\000\000\000\000\000"
  }
  initializer {
    dims: 1
    data_type: 7
    name: "1649"
    raw_data: "\000\000\000\000\000\000\000\000"
  }
  initializer {
    dims: 1
    data_type: 7
    name: "1650"
    raw_data: "\377\377\377\377\377\377\377\177"
  }
  initializer {
    dims: 1
    data_type: 7
    name: "1651"
    raw_data: "\000\000\000\000\000\000\000\000"
  }
  initializer {
    dims: 1
    data_type: 7
    name: "1652"
    raw_data: "\377\377\377\377\377\377\377\177"
  }
  initializer {
    dims: 1
    data_type: 7
    name: "1653"
    raw_data: "\000\000\000\000\000\000\000\000"
  }
  initializer {
    dims: 1
    data_type: 7
    name: "1654"
    raw_data: "\377\377\377\377\377\377\377\377"
  }
  initializer {
    dims: 1
    data_type: 7
    name: "1655"
    raw_data: "\377\377\377\377\377\377\377\377"
  }
  initializer {
    dims: 1
    data_type: 7
    name: "1656"
    raw_data: "\002\000\000\000\000\000\000\000"
  }
  initializer {
      dims: 32
      dims: 32
      data_type: 1
      name: "1657"
  }
  initializer {
      dims: 32
      dims: 128
      data_type: 1
      name: "1658"
  }
  initializer {
      dims: 128
      dims: 32
      data_type: 1
      name: "1659"
  }
  initializer {
      dims: 32
      dims: 2
      data_type: 1
      name: "1660"
  }
  initializer {
      dims: 32
      dims: 32
      data_type: 1
      name: "1661"
  }
  initializer {
      dims: 32
      dims: 32
      data_type: 1
      name: "1662"
  }
  initializer {
      dims: 32
      dims: 4
      data_type: 1
      name: "1663"
  }
  initializer {
      dims: 32
      dims: 32
      data_type: 1
      name: "1664"
  }
  initializer {
      dims: 32
      dims: 32
      data_type: 1
      name: "1665"
  }
  initializer {
      dims: 32
      dims: 4
      data_type: 1
      name: "1666"
  }
  initializer {
    dims: 1
    data_type: 7
    name: "1667"
    raw_data: "\001\000\000\000\000\000\000\000"
  }
  initializer {
    dims: 1
    data_type: 7
    name: "1668"
    raw_data: "\001\000\000\000\000\000\000\000"
  }
  initializer {
    dims: 1
    data_type: 7
    name: "1669"
    raw_data: "\001\000\000\000\000\000\000\000"
  }
  initializer {
    dims: 1
    data_type: 7
    name: "1670"
    raw_data: "\001\000\000\000\000\000\000\000"
  }
  initializer {
    dims: 1
    data_type: 7
    name: "1671"
    raw_data: "\001\000\000\000\000\000\000\000"
  }
  initializer {
    dims: 1
    data_type: 7
    name: "1672"
    raw_data: "\001\000\000\000\000\000\000\000"
  }
  input {
    name: "input.1"
    type {
      tensor_type {
        elem_type: 1
        shape {
          dim {
            dim_value: 1
          }
          dim {
            dim_value: 3
          }
          dim {
            dim_value: 360
          }
          dim {
            dim_value: 640
          }
        }
      }
    }
  }
  input {
    name: "x2"
    type {
      tensor_type {
        elem_type: 1
        shape {
          dim {
            dim_value: 1
          }
          dim {
            dim_value: 1
          }
          dim {
            dim_value: 360
          }
          dim {
            dim_value: 640
          }
        }
      }
    }
  }
  output {
    name: "out_pred_logits"
    type {
      tensor_type {
        elem_type: 1
        shape {
          dim {
            dim_param: "Gatherout_pred_logits_dim_0"
          }
          dim {
            dim_value: 7
          }
          dim {
            dim_value: 2
          }
        }
      }
    }
  }
  output {
    name: "out_pred_curves"
    type {
      tensor_type {
        elem_type: 1
        shape {
          dim {
            dim_value: 1
          }
          dim {
            dim_value: 7
          }
          dim {
            dim_value: 8
          }
        }
      }
    }
  }
  output {
    name: "output_class"
    type {
      tensor_type {
        elem_type: 1
        shape {
          dim {
            dim_value: 2
          }
          dim {
            dim_param: "Gatherout_pred_logits_dim_0"
          }
          dim {
            dim_value: 7
          }
          dim {
            dim_value: 2
          }
        }
      }
    }
  }
  output {
    name: "output_specific"
    type {
      tensor_type {
        elem_type: 1
        shape {
          dim {
            dim_value: 2
          }
          dim {
            dim_value: 1
          }
          dim {
            dim_value: 7
          }
          dim {
            dim_value: 8
          }
        }
      }
    }
  }
  output {
    name: "weights"
    type {
      tensor_type {
        elem_type: 1
        shape {
          dim {
            dim_value: 1
          }
          dim {
            dim_value: 240
          }
          dim {
            dim_value: 240
          }
        }
      }
    }
  }
}
opset_import {
  version: 11
}
